BCEval/bc_models/cramped_room/agent1_policy.pth (torch, 795712 bytes, 4 tensors)

fc1.weight f4 [256, 768]
00000000: f286 27bc 10ae ffbc c852 f63b e03e 0f3d
00000010: 58cd 9f3c 6a7f 18bc 42c1 8b3c 209c cb3c
00000020: 0ce9 61bc 5039 9abb 40aa 793b ea2f 8dbc
00000030: e81a 8cbb 240b fabc 8037 97bb a2a9 a13c
00000040: fc66 b3bb ee5e fbbc 781c 2bbc e80f ed3b
00000050: f6e2 103d 6023 dc3c 8044 9639 a04b d0bc
00000060: 396c 05bd a833 533c ccae 2c3c 9012 41bc
00000070: f774 87bc bba5 10bd 908d f1bb 803b c83b
00000080: 5f4f 10bd cc1f a1bc 60bb 6e3c a20d 8cbc
00000090: bd7b acbc 2072 57bc 5383 91bc 6809 843b
000000a0: 807b fa3a 29cf 97bc 4806 123c ccdf f93c
000000b0: e679 d4bc 92a3 943c 8300 e0bc 80ae 28ba
000000c0: e07c 9e3a 9a03 133d 5205 013d 7038 34bb
000000d0: 0065 043b bced 753c c6b6 003d d870 dabb
000000e0: a3c5 f2bc 6eb6 103d f066 13bd 3cc8 043d
000000f0: 600f 013d 1753 0cbd 2693 113d ea77 0a3d
00000100: f725 05bd dc03 df3c 881f b1bb d1c6 99bc
00000110: e838 a43c 48c6 9ebb 5048 80bc acc8 e7bb
00000120: c8af a23b 9607 73bc 0026 47bb c04b 94ba
00000130: 448c ef3c be38 d4bc e891 073d 9837 eabb
00000140: 8a71 2bbc b29a 083d 0a4d ab3c 9555 c9bc
00000150: 247f e93c 6bf8 8fbc 00a2 423b 4307 8bbc
00000160: 6424 0e3d 7b54 07bd 0afa 8b3c 9412 f23c
00000170: f009 343b 44b2 003d 7050 523b 0cb3 de3c
00000180: 5b0f 8fbc 906c 683b e130 9dbc fc62 94bc
00000190: c4b6 493c 24d9 53bc 4e88 e0bc 68cc 5c3c
000001a0: efbd 84bc c6d9 b8bc 82b7 07bd 645b 4d3c
000001b0: dc24 e6bb 3610 f2bc 7ebd c2bc a8fc a93c
000001c0: e87d 0bbd f8b9 d93c a00e b83c 5c46 c4bb
000001d0: d058 013d 6cfc 72bc 80d7 39bc 14d6 c63c
000001e0: 70e6 113d 8090 2fba 10df 033b 62b3 04bd
000001f0: ac63 da3c f2a2 a33c aa98 cebc 30da 343c
00000200: f05a 9bbb 482a 1fbc 2c56 003d d859 6e3c
00000210: 407c 8cba 08ff f73c 59aa 84bc e4e2 ba3c
00000220: 1840 453c 20c8 ee3c fad3 ccbc 3863 663c
00000230: ba75 bcbc 042c f03c 6cd5 053d 61b4 01bd
00000240: 044f d1bb 185d 00bd 380b 693c b0c3 1a3c
00000250: aab7 013d b6ab 9c3c e752 0ebd ee8a 1ebc
00000260: f9ef 82bc 6c2f a53c 5a5d 993c 5e2b a9bc
00000270: e8bb 7cbc 2661 23bc 3669 c53c 2c57 bc3c
00000280: f0c0 1f3b ae09 0e3d fc68 c3bb 0c74 66bc
00000290: 3094 db3c 0893 aa3b faa3 0fbd c4e3 553c
000002a0: e80e 963b 4a03 c53c 7eb7 f6bc f64a 27bc
000002b0: 3a88 38bc 401d 063a 606f 21bb 1e5a ad3c
000002c0: 80b1 af3c ea5c 46bc 7cd5 8b3c 2c67 fe3c
000002d0: deeb e3bc c056 df3a 2e56 9d3c 6073 1abb
000002e0: 645f fd3c c698 bf3c ae9b 913c 9809 79bc
000002f0: 8725 0dbd 541c d0bc 4e49 01bd 4899 b03b
00000300: 7aa8 a43c 7ab5 b0bc 702b 05bb 102c eb3c
00000310: 562b 973c da29 9f3c 2004 03bb fba0 0cbd
00000320: 56e6 0a3d 74e3 543c 6015 c3bc 5de8 93bc
00000330: 81bc bdbc 7c03 06bd e85a 833b ccc9 8e3c
00000340: eeb3 a7bc bae4 c9bc fcd6 d2bc 00c0 713a
00000350: 1e41 8a3c 60bc 86ba b4e2 003d c34d 97bc
00000360: e2cc ddbc 3eec e4bc cf1a fabc f31a cfbc
00000370: 648c 3abc f053 51bc f8dc 3dbc d4fc c63c
00000380: c2cf 833c 4074 063b 96b9 7dbc 823f 0b3d
00000390: 1c16 713c 6d40 d4bc da96 063d f83c 6ebc
000003a0: 4430 ec3c da6c c5bc 20a3 eb3c 9053 a93c
000003b0: f039 a33b 10b3 c13c 2ab3 6cbc bdcd a9bc
000003c0: bade a83c 804c 07ba b470 413c 5efb aa3c
000003d0: 989e 173c d807 e7bc 5023 44bb c0fe 3dbb
000003e0: 589b efbc 408d d63a 6e53 9ebc 307c 51bb
000003f0: f07a f03b 1424 c8bb 24ef df3c 8890 703c
-0.010225045 -0.03121093 0.0075171925 0.03497207 0.019507095 -0.009307722 0.017059926 0.02485472
-0.013788473 -0.004706539 0.0038095862 -0.017234761 -0.0042756684 -0.03052289 -0.0046147704 0.019734208
-0.005474923 -0.030684914 -0.010443799 0.007234562 0.035372697 0.026872337 0.00028661266 -0.025426686
-0.032573912 0.012890734 0.010539722 -0.011784211 -0.016535265 -0.035314303 -0.007371612 0.0061106086
-0.035231944 -0.019668482 0.014571041 -0.017096344 -0.021055097 -0.013149768 -0.017762816 0.0040294416
0.0019110292 -0.018531399 0.00891263 0.030502222 -0.025937032 0.018144403 -0.027343994 -0.0006434694
0.0012091659 0.035892107 0.031499214 -0.002749946 0.0020201802 0.015010294 0.031424306 -0.006666284
-0.029635256 0.03533023 -0.03598684 0.03241752 0.031508803 -0.03425893 0.035540722 0.033805765
-0.03250691 0.02722352 -0.00540537 -0.01877156 0.020046666 -0.0048454143 -0.015659481 -0.0070734825
0.0049648024 -0.014833352 -0.003038764 -0.0011314079 0.029241689 -0.025905963 0.03309813 -0.0071477406
-0.010464082 0.033350654 0.020910759 -0.024576942 0.028503008 -0.01757451 0.002969861 -0.016971236
0.034702674 -0.03303955 0.017087001 0.029549874 0.0027471744 0.031420007 0.0032091402 0.027184986
-0.017463377 0.00354651 -0.019188346 -0.018113606 0.012311641 -0.012930188 -0.027408745 0.013476469
-0.016203849 -0.02256478 -0.03313399 0.012533996 -0.007023437 -0.029548746 -0.023771998 0.020750359
-0.03405562 0.026577935 0.022467911 -0.005989833 0.03157884 -0.01483069 -0.011342883 0.024272002
0.035620153 -0.00066972524 0.002012197 -0.032397635 0.026658855 0.01997516 -0.02521928 0.011038348
-0.004741065 -0.0097146705 0.03133218 0.014547788 -0.0010718182 0.030272976 -0.01619451 0.022813268
0.012039207 0.029148161 -0.025003422 0.0140617415 -0.023005355 0.029317863 0.032674238 -0.031666163
-0.006387593 -0.03133878 0.014223866 0.00944607 0.031669296 0.019124847 -0.03474703 -0.009676678
-0.015983569 0.020164214 0.018721271 -0.020650562 -0.01542566 -0.009971892 0.02409802 0.022990786
0.0024376474 0.0346772 -0.005963443 -0.014065754 0.02680406 0.005205516 -0.03506849 0.013054792
0.0045794137 0.02404942 -0.030116793 -0.010210743 -0.011262948 0.0005116053 -0.0024633035 0.021161135
0.021446943 -0.012107113 0.01706957 0.031055056 -0.027822431 0.0017039403 0.019206133 -0.0023567304
0.030929275 0.023388278 0.01777443 -0.015200041 -0.034459617 -0.025404133 -0.03156405 0.0053893663
0.020099867 -0.02157091 -0.002032008 0.028707534 0.018453281 0.019429136 -0.0019991472 -0.03433321
0.03391107 0.012993682 -0.023813903 -0.018055135 -0.023161175 -0.032718167 0.0040086396 0.017430209
-0.02047154 -0.024645198 -0.025737278 0.00092220306 0.016876753 -0.0010279529 0.0314662 -0.018469697
-0.027075235 -0.02794468 -0.030530361 -0.025281405 -0.011386011 -0.01277636 -0.011588328 0.02429048
0.016090278 0.0020516068 -0.015486142 0.033996113 0.014714744 -0.025909627 0.032858707 -0.014540903
0.028831609 -0.024099756 0.028764307 0.020669729 0.004981272 0.023644954 -0.014447013 -0.020727986
0.020614017 -0.00051612407 0.011806656 0.020871814 0.00925412 -0.028201982 -0.0029928274 -0.0028990954
-0.029248878 0.0016369 -0.019326892 -0.003196489 0.007338874 -0.0061078165 0.02733571 0.014682896

fc1.bias f4 [256]
00000000: a05b 283c 78e8 6a3c f238 3ebd ad31 52bd
00000010: eccd 163c a835 4b3c be12 86bb 8aa8 efbc
00000020: c005 513b 3817 25bd 84a3 d6bc 50e8 00bb
00000030: 5e96 823c 2cdd 98bd 665c 23bd 447a e1bc
00000040: e963 febc f2b1 8e3c 560d 26bd c8cd 55bc
00000050: 63b8 a3bd 1b16 08bd a447 133d 80c2 ccba
00000060: 5c9c ecbc ad3b 313a ae2d 60bc d849 d6bc
00000070: 587f 53bb 12bb 92bb e5f5 94bc 65f8 f73a
00000080: 7001 793c f002 4a3c 42ab b93b 096c c6bb
00000090: b96b 23bd 1582 863b 7a13 cb3c bdb5 82bd
000000a0: e8a5 a13c 2dd1 e7bb 5bed debc 7828 60bc
000000b0: bbe0 ffbc 6dc7 86bc 955b a53c 8308 01bd
000000c0: ef83 06bd f092 433c b523 bbbc d0ea f73b
000000d0: 30f8 f6bc b5d5 adbc c4a4 e23c 76b3 21bd
000000e0: 40ab d23c 902d e63c f5b3 87bc 9a41 58bd
000000f0: 8145 74bc d19a d83c 1f52 4e3c e9ca fcbc
00000100: fc98 e5bc 63bb 6a3c e8cf 583c 9193 a4bc
00000110: a98d 8fba e433 b2bc 65ea c13c 1c1e 0c3d
00000120: 7bf5 93bc a4c8 73bc c0b8 4c3a ce0d ef3c
00000130: 60bd a73b 960c be3c a80c 5f3c d82d 06bd
00000140: dfde 23bc 1bd2 b03c 1059 5bbd ee0a 27bc
00000150: 12aa fabc 8cb8 55bc 5ac0 8e3c 7c58 aabc
00000160: 16bb fabc e3b9 f5ba 1015 ce3c 900f 63bb
00000170: fd60 4b3c 3ed3 10bd cd00 0ebd 38c2 87bb
00000180: 18a7 8bbb 3c88 113c 004d d9bc a449 c8bb
00000190: ade7 c6bc 6712 d7bc 15a8 fcbc c3ee f33b
000001a0: 8e3b 77bc a72e 84bd 8e6a 003c a883 8f3c
000001b0: 1077 c3bc 42b2 c0bc fcd0 313b 7e61 123d
000001c0: d044 b0bc ef26 11bd 709b 85bc d468 2d3c
000001d0: 78a3 acbc 7c60 323a 488f 28bc 88de 92bd
000001e0: b52f fcbb fbd6 0dbd 9927 b1bc cc43 32bd
000001f0: cca4 f23c 4076 003b a282 88bc 5563 003d
00000200: d30f a23c 2ff0 05bc a3b5 a03d c493 03bd
00000210: 176d 89bc 569d 113d 54b0 813c de1e 1bbc
00000220: f037 dabc 1c41 debc 9747 12bd a8d1 943c
00000230: 6512 19bc ad1d 933c 100d 44bd f235 e03b
00000240: 1ee6 d03c 00f5 eabb 336e 79bb c683 c3bc
00000250: 0bcf 843c cc2f b3bc da62 28bd b1e4 3cbd
00000260: 0820 16bc bc87 b5bc 564c 04bd 948f 10bd
00000270: 634a fb39 66bb 2f3b 458a 9ebc d299 983c
00000280: 0801 5abd 8344 03bd eb1f 113c 06de 4abc
00000290: 3535 ca3b c86e 06bb 47c9 78bb 4a0e ea3c
000002a0: 7f43 a5bc 9f52 0ebd 3c16 57bc def6 e9b9
000002b0: ec55 0bbd c378 ffbc 02c1 ddbc 604e debc
000002c0: 1677 3fbd 32ca 12bd 130e afbc 221d 87bd
000002d0: e411 b83c e609 cbbc 6575 abbd de7a d8bc
000002e0: 242b 793d 5a36 9a3b c8c6 fb3c 64fb 963c
000002f0: 06a2 3abd 1ec9 a3bc 9a73 cebc d0f8 a13b
00000300: 591a 523c 414c 4cbd 1161 4dbc 08cf 49bd
00000310: 9f76 99bd 521e c03c 9e19 26bd 6967 09bd
00000320: a2eb a8bc 3163 1ebc 48af e83b b8b6 f73b
00000330: fb1f 13bd 78b9 5c3c b57c 603c c989 4dbc
00000340: 54ee 72bc 4513 4cbd 32bb 11bd bfe2 4bbd
00000350: b46a a23c ed18 1cbd 0391 c6bb 90da 5b3c
00000360: 8f95 03bd 84be 0e3d 89ad 0dbd 4049 913b
00000370: fa6c 3abc 0058 433b 2a69 9f3c 2f8b c8bc
00000380: ad56 923d 3bf0 df3c 2ed0 21bd a4e5 a5bc
00000390: dfb6 96bc d3da 803c 4eca 033d 424c 063d
000003a0: f842 d83b 4fbe e63c 2170 85bc b273 e8ba
000003b0: 43db d2bb 62eb 70bd 7815 8f3c 1240 dabc
000003c0: 2660 51bb 3b69 e3bc 3052 acba 16bb f43c
000003d0: 6767 a6bc 2bcd 61bd 50fd eebc d4fd 773c
000003e0: 2748 78bd e853 06bd 888f 0cbd 8279 823c
000003f0: 50a5 d1bb e4e3 b93c 30cc 893c 7d67 e0bc
0.010275751 0.014337651 -0.046441026 -0.051316906 0.009204369 0.012402929 -0.0040915897 -0.02925517
0.0031894296 -0.040305346 -0.026201017 -0.001966972 0.015940841 -0.0746406 -0.03988304 -0.027524121
-0.0310535 0.017418835 -0.040540062 -0.01304955 -0.07994153 -0.033224206 0.035956994 -0.001562193
-0.028883152 0.00067609065 -0.013682766 -0.026158258 -0.0032271948 -0.004477867 -0.018183658 0.0018918632
0.015198097 0.012329802 0.0056661675 -0.0060553593 -0.039897654 0.0041048625 0.02478956 -0.0638232
0.01973243 -0.0070744962 -0.02721279 -0.0136815235 -0.03123509 -0.016452515 0.020185271 -0.031502258
-0.032840665 0.011936888 -0.022844175 0.0075658336 -0.030147642 -0.021220068 0.027666457 -0.039477788
0.025716424 0.028097898 -0.016565302 -0.052796938 -0.014909149 0.02644101 0.012592821 -0.030858474
-0.02802705 0.014326903 0.013233162 -0.020089896 -0.0010952252 -0.021753259 0.023671338 0.034208402
-0.01806139 -0.014879379 0.00078095123 0.029181387 0.005119011 0.02319936 0.013613857 -0.032758564
-0.010001867 0.021584561 -0.053551733 -0.010195477 -0.030598674 -0.013044488 0.017425705 -0.020794146
-0.030606788 -0.0018747415 0.025156528 -0.0034646727 0.0124132605 -0.035357706 -0.034668732 -0.0041430257
-0.0042618625 0.008882578 -0.026525974 -0.0061122943 -0.024280393 -0.026253892 -0.030841867 0.007444234
-0.015089883 -0.06454211 0.007837905 0.017518833 -0.023860484 -0.0235225 0.002713262 0.035737507
-0.021517187 -0.03543752 -0.01630947 0.010584075 -0.021074042 0.00068045384 -0.010288067 -0.07171351
-0.007696117 -0.03462885 -0.021625327 -0.043521687 0.029619597 0.0019601732 -0.016663853 0.03134473
0.019782936 -0.00817494 0.078471445 -0.032123342 -0.01677565 0.035550438 0.01583115 -0.0094678085
-0.026638001 -0.027130656 -0.035712805 0.018166378 -0.0093427645 0.017958486 -0.04786402 0.0068423683
0.025500353 -0.0071703196 -0.0038060069 -0.023866545 0.016212007 -0.021873377 -0.041109897 -0.046116535
-0.00916291 -0.02215945 -0.032299362 -0.035293177 0.00047929873 0.002681458 -0.019353041 0.018628035
-0.05322364 -0.03204776 0.0088577075 -0.012382036 0.0061708936 -0.0020512808 -0.0037961768 0.028571267
-0.020173786 -0.034746762 -0.01312786 -0.00044625154 -0.03401749 -0.031185513 -0.027069572 -0.027136981
-0.04674443 -0.03583736 -0.021369016 -0.065973535 0.022469468 -0.024784993 -0.083720006 -0.026425775
0.060832158 0.0047061862 0.030734435 0.01843042 -0.045564674 -0.019993361 -0.025201607 0.004942991
0.012823665 -0.04987741 -0.0125353495 -0.049269706 -0.07493328 0.023451958 -0.040551774 -0.033545885
-0.020620171 -0.009667204 0.0071009733 0.0075596236 -0.03591917 0.013471954 0.0137016075 -0.012545058
-0.01482733 -0.049823064 -0.035578914 -0.04977679 0.01982627 -0.03810971 -0.006059767 0.013418809
-0.032125052 0.03484966 -0.034589324 0.004433781 -0.011378521 0.002980709 0.019459326 -0.02448043
0.07145438 0.02733623 -0.039505176 -0.020251103 -0.018397747 0.015729344 0.032175355 0.03278757
0.00659978 0.028166918 -0.016288819 -0.0017734675 -0.0064348294 -0.05881823 0.017466292 -0.02664188
-0.0031948178 -0.027760139 -0.0013147052 0.029874366 -0.020312978 -0.055127304 -0.029173523 0.015136201
-0.060615685 -0.032794863 -0.03431657 0.01592708 -0.0063978806 0.022691675 0.016820997 -0.027393097

fc2.weight f4 [6, 256]
00000000: 743b c3bc 0a23 7f3d 7065 7f3c 60c1 4cbe
00000010: e559 213c c086 723b fd04 b3bd 6a02 233d
00000020: a467 353d 5aa9 b8bc 4839 36bd 805c 373c
00000030: 38c5 23bd 65e2 06be 24ba cd3d 6879 4abd
00000040: 15d2 fbbc 126d 10bd c5cd 513d 2017 563b
00000050: 9b6a 343f caee 163d cc1b 09bd 0e0e 223d
00000060: 729b 463d 1f94 d2bd fa93 36bd 4841 97bc
00000070: 1ef3 d23d 4bc0 3dbd aca6 63bd 435c 24be
00000080: 40a1 4f3c 71c7 f23c eafd 82c0 cb2d a5bd
00000090: 3d64 bfbd db4d 95bd a833 28bd 4c28 adbd
000000a0: d4cc 453d 1b09 02be 78e9 1a3d dc83 cebc
000000b0: 5ea3 a8bf b04c 413d d0bd 653d 3ff0 afbd
000000c0: 91e1 3dbd fe77 52bd b9d7 2cbd 8657 623d
000000d0: 7b71 fe3d 6027 6bbd 58ee b03c 38e9 11bb
000000e0: 79e2 a93a cc3c fdbc b151 84be 5804 2ebe
000000f0: bd39 f73d 828e 44bd 7e91 2cbd 38ec efbc
00000100: 0507 04bd ad4e 093f 6ad9 f53c 0865 4a3d
00000110: 732b 103d d169 b0bb cfa6 c7bc 189c 96c0
00000120: d543 ac3d b689 66bd 1c16 7a3d 9794 9abc
00000130: 74a4 a13c d10e 7fbc f61b 1a3d b3bd 5b3d
00000140: 457e 20be 1efa 243d 45c0 213e dea5 d3bc
00000150: 46e5 e83c 34b4 513d 1ae0 303d 687a 68bd
00000160: db3b c3bd 58f6 813d 8f60 19bc 68c9 b63c
00000170: 96ab edbf a471 da3c 622f 613d 7605 44bd
00000180: 369d 78bd 507f 123c f4f7 04bd 30bb c5bc
00000190: b04d 6ebc e261 70bd fe2f 4abd cb53 b23d
000001a0: 7456 453d ca7c 383e 2c8a 3ebd 1e22 04bd
000001b0: 9763 e1bc 545d d0bc 5633 57bc 4021 53bb
000001c0: e2c6 653d 3660 223b a4a6 bbbb 88dc 663c
000001d0: bd35 b13c 32be 32bf 1cfc 5dbe ab61 573f
000001e0: 28bb 803d 4480 043d 4b34 c1bc 70b4 5e3d
000001f0: d0c2 2fbd 709c 223c 6034 0f3b 38eb 0040
00000200: 3b28 bf3d 50ef 413d b9aa 38c0 023f 703d
00000210: a05d 523b 3dad a9be 7e40 233d d17d 8dbc
00000220: b3ce 693e f8fd 043c b244 363d d81e f8bc
00000230: 612a 013d 95c8 3bbd c836 073e cab5 5abd
00000240: 80d0 16ba 6284 163d 0177 903d 60b0 50bb
00000250: 34bb 4c3e 9851 343c 305c b73b aaa4 23bd
00000260: a2f6 593d 5471 f73d 90c3 cdbb 00fe 3d3c
00000270: c5fa a1bb 8dae 12bd ae0f 4f3f cc80 0ebd
00000280: d680 f9be f683 fdbe 672e c1bd baa0 223d
00000290: 588c 96bc ebac 023e be53 963d 12c2 94bc
000002a0: c9d5 78bb e6fa 533a 34d7 f53c 33e1 ea3d
000002b0: 544c 8d3c e936 903c f267 273e 909c 1d3d
000002c0: 8341 c23d 3467 9dbc b729 043d 0ef3 eabd
000002d0: 9532 d6bc cfff 263c dea9 fb3d a420 c8bc
000002e0: 6cef 32c0 793b cb3b 5495 513d 8e01 1bbd
000002f0: 9c87 69be 007c 57b9 18fb 89bd dab7 123d
00000300: 3380 75bc 2e26 41bd a1bb 55bd 545c 003e
00000310: 13a5 33bf e8f5 5f3c c7bf 853d c156 bfbe
00000320: 5284 d8bd 4de9 d73d 40a8 aa3a 4dbb c93d
00000330: 736d 80bd a46b 883c 72a0 663d 89b1 253d
00000340: 00de 9439 0fcb f1bd 4ca7 91bc ffe7 753e
00000350: a274 133d 0721 803d f514 803b d242 613d
00000360: 2698 d13d 7810 5cbd 3ca6 19bd e315 163c
00000370: 1ff1 05bc 8c5e e33c c454 1a3d 777f bfbc
00000380: a19e 06c0 e947 263c dc04 0f3d c4ac 05bd
00000390: 24d4 c6bc c82f 513d 2080 bbbc 400d fabb
000003a0: 50ae 463d 992e 24bd d897 003c 91cc b23d
000003b0: 4cd8 9e3d 1642 c23d 8eec 14bd 6848 f63c
000003c0: 634a 8a3d d057 30bd 5e13 113e 8a14 4b3d
000003d0: 7660 5dbd 729f c03d c260 5cbd 5801 19bc
000003e0: 2746 71bc 64f4 2ebd 59d8 61bc eaae 2b3d
000003f0: a3d8 043d 1cf9 c6bc 1c14 94bc dc19 853d
-0.02383206 0.062289275 0.015588149 -0.19995642 0.009848093 0.0037006587 -0.08741186 0.039797224
0.044288293 -0.02254169 -0.04448822 0.011191487 -0.039983004 -0.131723 0.10045269 -0.04943219
-0.030739823 -0.035260268 0.051221628 0.0032667592 0.7047517 0.03684882 -0.033473775 0.039564185
0.048488088 -0.10282158 -0.044574715 -0.018463746 0.10300277 -0.046325963 -0.055578873 -0.1605082
0.012672722 0.029636117 -4.0934954 -0.08065375 -0.09345291 -0.072902404 -0.04106489 -0.08454952
0.048291042 -0.12698786 0.03782031 -0.02520936 -1.3174856 0.047192276 0.056089222 -0.08590745
-0.046357695 -0.051383965 -0.042197917 0.05525925 0.124239884 -0.057410598 0.021598026 -0.0022264253
0.0012961171 -0.03091278 -0.25843576 -0.16993845 0.120715596 -0.04798747 -0.04213094 -0.029287443
-0.032233257 0.53635675 0.030010898 0.049412757 0.035197686 -0.005383708 -0.024371533 -4.7065544
0.084113754 -0.056283675 0.06105624 -0.018869681 0.019731738 -0.015567497 0.037624322 0.05364771
-0.15673168 0.040277593 0.15796001 -0.025835928 0.028429639 0.051197246 0.04318247 -0.05675736
-0.09532901 0.063458145 -0.0093614 0.022312835 -1.8567989 0.026665516 0.05497683 -0.04785677
-0.060696803 0.0089414865 -0.03246303 -0.02413711 -0.014544889 -0.0586871 -0.049362175 0.087073885
0.04817815 0.18016353 -0.04651849 -0.0322591 -0.027513308 -0.025435127 -0.013134798 -0.0032215863
0.056097873 0.0024776584 -0.005726652 0.014090665 0.02163207 -0.69821465 -0.21678203 0.84133404
0.06285697 0.032348886 -0.023584506 0.054371297 -0.042910397 0.009924993 0.0021851286 2.0143566
0.09333845 0.047347367 -2.88542 0.05865384 0.0032099262 -0.33139983 0.039856426 -0.017271908
0.22832756 0.0081171915 0.044499107 -0.030288145 0.031534556 -0.045845587 0.13204491 -0.053396024
-0.0005753115 0.036747344 0.07053948 -0.003184341 0.19993287 0.011005782 0.0055957064 -0.039951958
0.053213723 0.120821625 -0.0062794164 0.011596203 -0.004943224 -0.035810996 0.808833 -0.0347908
-0.48731107 -0.4951474 -0.09432679 0.039704062 -0.018377468 0.12761275 0.07340191 -0.018158946
-0.0037969223 0.0008086398 0.030009843 0.114687346 0.01724831 0.017604308 0.16348246 0.038479388
0.094851516 -0.01921425 0.032266345 -0.1147214 -0.026147166 0.010192825 0.12288259 -0.024429627
-2.7958632 0.006202158 0.0511678 -0.03784328 -0.22805637 -0.00020550191 -0.067373455 0.035819866
-0.014984178 -0.04715555 -0.05218089 0.1253522 -0.7017376 0.013669468 0.06530719 -0.37370875
-0.10572113 0.105425455 0.0013020113 0.09850178 -0.06270876 0.01665289 0.056305356 0.040452514
0.00028394163 -0.118063085 -0.017779969 0.2401428 0.0359999 0.062562995 0.0039087483 0.054995365
0.10234098 -0.053726643 -0.03751205 0.009160492 -0.0081751635 0.027755044 0.037678495 -0.02337621
-2.103432 0.010148981 0.034916744 -0.032635465 -0.024271078 0.05107096 -0.022888243 -0.007630974
0.04850608 -0.0400835 0.007848702 0.08730424 0.07756099 0.09485261 -0.03635841 0.030063823
0.067524694 -0.043052495 0.14167544 0.049580134 -0.05404707 0.09405412 -0.053803213 -0.009338699
-0.014726198 -0.042713538 -0.013784491 0.041914858 0.032433163 -0.024288706 -0.018075995 0.06499073

fc2.bias f4 [6]
00000000: 7711 6abf acf5 55c1 67ed fd3e 48e2 88be
00000010: 0fc6 7e3f d8f2 963f
-0.914329 -13.3724785 0.49595186 -0.2673514 0.99520963 1.179286
