BCEval/bc_models/cramped_room/agent2_policy.pth (torch, 795712 bytes, 4 tensors)

fc1.weight f4 [256, 768]
000000 82 6e ab 3c 30 98 c9 3b 06 2e af 3c 5c de c5 3c
       0.020926718 0.0061521754 0.02138425 0.02415388
000010 6e c2 a0 3c d7 d1 97 bc 76 c5 1e bc c0 4d 24 ba
       0.019623961 -0.018532677 -0.009690633 -0.0006267689
000020 c0 ba 52 ba 78 50 ad 3b f8 df 55 3c 3e e6 d1 bc
       -0.0008038692 0.0052891336 0.013053887 -0.025622483
000030 a7 b3 01 bd 58 02 8d 3b a8 b4 f7 bb 44 25 66 3c
       -0.03166547 0.004303258 -0.0075593777 0.014046971
000040 a0 5a 53 3c 3b ee a7 bc 1a 57 05 3d e8 fc 55 3c
       0.012900025 -0.02049934 0.03255377 0.013060786
000050 24 c6 0b 3d b0 ca 6a bc dc 89 82 3c 02 62 00 3d
       0.03412451 -0.014330551 0.015934877 0.031343468
000060 60 22 3a bb f6 bd a5 3c 40 28 9a bb 4e 98 b5 3c
       -0.0028401837 0.020232182 -0.004704505 0.022167351
000070 94 31 cc bb 6a 11 9f 3c 64 9c ce bc c0 67 9d bb
       -0.006231496 0.019417483 -0.025221057 -0.0048036277
000080 10 4b 71 3c 7c b3 00 3c fa c4 0a bd 40 3d 75 bc
       0.014727369 0.007855292 -0.033879258 -0.014968216
000090 a7 60 0e bd 00 20 8c bc 5e 8e fa bc 2e a1 6b bc
       -0.034760144 -0.017105103 -0.030585464 -0.01438169
0000a0 ae 57 c7 3c d0 06 fd 3c 74 8c f8 3c f4 29 3a 3c
       0.024333801 0.030887038 0.03034041 0.0113625415
0000b0 5b 96 d9 bc 7e ab 14 bc 7c ea a7 3c 80 75 81 bc
       -0.026560953 -0.00907409 0.020497553 -0.015803099
0000c0 00 97 08 bd 9c 20 ec 3c 38 43 87 3b 00 38 09 bd
       -0.03334713 0.028824143 0.004127886 -0.03350067
0000d0 99 e7 a1 bc 60 49 38 bb 66 1a 67 bc d0 c7 0f bd
       -0.019763755 -0.0028119907 -0.014105415 -0.035102665
0000e0 88 b2 b9 3c f8 85 fc 3b f4 43 fd 3c 5d 7e 94 bc
       0.022668138 0.0077064 0.030916192 -0.018126661
0000f0 f2 70 8e bc b8 76 22 3c 40 6e 9e bb 00 72 04 3d
       -0.01738784 0.009916 -0.00483492 0.03233528
000100 28 1d e7 3c ac ef 49 3c 75 76 05 bd a8 59 4a 3c
       0.028212145 0.012325209 -0.032583673 0.012350477
000110 5c 0f 23 bc a3 f6 95 bc 18 7f f3 3b 5c a8 55 bc
       -0.009952392 -0.018306082 0.0074309222 -0.013040628
000120 60 b7 e9 3b 98 cc a6 3b 88 f7 f8 3c 4a b9 03 3d
       0.0071324557 0.0050903074 0.03039147 0.032159127
000130 e8 74 12 bc fe 61 bc 3c 50 07 67 3b f4 4f 08 3c
       -0.008939005 0.022995945 0.0035252161 0.008319844
000140 0a 67 ad 3c 30 ae 82 bb e0 ba dc ba c8 5b 07 bd
       0.021167297 -0.00398805 -0.0016840361 -0.033046514
000150 2e 6e 92 3c b6 48 dc bc 30 a8 de 3c 00 89 69 3c
       0.017874803 -0.02689014 0.027179807 0.014253855
000160 80 ee f1 b9 6e 98 ca bc 1e 2e a9 bc 90 d4 d0 3c
       -0.00046144798 -0.024730887 -0.020651873 0.025491983
000170 1c 29 e9 3c f0 91 e2 bb 2c d2 07 3c 5e 4f b5 3c
       0.028461985 -0.0069143698 0.008289855 0.022132572
000180 5e d2 5f bc 78 b0 5d bc 2c 6f e8 3c 0a a7 0b 3d
       -0.013660995 -0.013530843 0.028373323 0.034094848
000190 00 25 e4 3a 4a cb 00 3d 42 93 d0 bc 00 d5 49 3a
       0.0017406046 0.03144387 -0.025460843 0.0007699281
0001a0 28 b9 90 3b ac 5f c4 3c 10 06 b3 bc 51 fc f6 bc
       0.0044166036 0.023971401 -0.021853477 -0.03014961
0001b0 08 c1 13 3d 2a 0d d1 3c 0c 42 c1 bb 88 45 01 3d
       0.03607276 0.025518972 -0.005897766 0.03156045
0001c0 e8 ae fc 3c 20 9f af 3b 20 bb e2 ba e6 8e 9e bc
       0.03084512 0.0053595454 -0.0017298199 -0.019355249
0001d0 6c 48 61 bc f0 eb 2e bb d1 14 f6 bc d6 29 0b bd
       -0.013750177 -0.0026690923 -0.030039223 -0.033975445
0001e0 6e f6 80 3c ba fa e9 bc 68 df 11 3d 64 f4 af 3c
       0.015742507 -0.028561939 0.035613447 0.02147884
0001f0 3c dc c5 bc f6 68 83 3c 10 80 bb 3c 52 6a bc 3c
       -0.024152867 0.01604126 0.022888213 0.022999916
000200 92 bc a6 bc 88 e6 9b bb 88 71 9a bc 4c 0d ae bc
       -0.02035359 -0.004757706 -0.018852964 -0.021246575
000210 f8 7f 9d bc 58 b3 9b 3c 70 96 62 bc d0 a0 08 3c
       -0.01922606 0.019006416 -0.013829812 0.008339122
000220 25 dc 91 bc 72 84 7b bc 68 b3 8a 3b 6c d9 92 3c
       -0.017805168 -0.015351402 0.0042328127 0.01792594
000230 38 a4 de 3c fe cb 38 bc 48 67 fe 3c 8b d6 0d bd
       0.027177915 -0.011279104 0.031055108 -0.034628432
000240 5e 17 3a bc ba 17 dc bc 1a f2 da bc 88 a1 8a 3b
       -0.01135811 -0.026866782 -0.026726771 0.004230682
000250 c5 de 8c bc 5c bc b1 3c ac 35 4f 3c bc f4 f3 bb
       -0.017196069 0.021696262 0.012647074 -0.007444946
000260 be 6f 57 bc 90 c3 2d 3c e7 2f a3 bc 68 b2 9b 3c
       -0.0131492 0.010605708 -0.019920303 0.01900597
000270 1a a5 dd bc 48 ad db 3c 10 74 7e 3c 50 01 d4 3b
       -0.027056266 0.026816025 0.015530601 0.006469883
000280 da af 0e bc 0e 54 af bc 00 58 b6 38 f6 83 b4 bc
       -0.0087089185 -0.021402385 8.6948276e-05 -0.02203558
000290 80 b8 b2 3a d0 bb e8 bc 8a 34 b9 3c 16 21 08 bd
       0.0013635308 -0.028409868 0.02260806 -0.03323468
0002a0 aa f5 05 3d 74 c8 0c bd 20 11 1d 3c 18 5c d8 3c
       0.032704987 -0.034370854 0.009586602 0.026411101
0002b0 b0 71 fb 3b c0 42 4f ba 88 20 a7 bc 4b a1 00 bd
       0.0076734647 -0.000790637 -0.020401254 -0.03140382
0002c0 f0 56 a8 bb 6f 94 0e bd 38 f5 cd 3b 80 b3 8f ba
       -0.005137317 -0.034809526 0.006285336 -0.0010963529
0002d0 28 b1 68 bc cc d3 14 bc e8 65 c4 3b f0 57 70 bb
       -0.014202394 -0.009083699 0.0059935935 -0.0036673509
0002e0 84 db 07 bd 88 05 ff 3c 7b 8d da bc 00 78 01 3c
       -0.03316833 0.031130567 -0.026678791 0.007902145
0002f0 7e ba 9e 3c 2c b3 98 3c c0 83 f8 3c 94 10 2d bc
       0.019376036 0.018640123 0.03033626 -0.010563035
000300 f8 8b 92 3c c0 1b 01 bd 9c 27 65 3c 54 94 70 3c
       0.017889008 -0.031520605 0.013986494 0.014683802
000310 d0 1f 61 3c 2d 94 83 bc 62 a1 f9 bc b1 ec 01 bd
       0.013740495 -0.016061867 -0.030472461 -0.031719867
000320 9c 26 c0 bc 56 23 8a 3c 74 2f a9 3c 89 57 11 bd
       -0.02345591 0.016862553 0.02065251 -0.03548387
000330 00 85 6c 3a 4c 64 3b 3c f4 8b b6 3c e4 46 b4 bb
       0.0009022504 0.011437487 0.022283532 -0.005501615
000340 8e 80 07 bd f6 8d 0b bd 06 97 99 bc e8 72 78 3c
       -0.033081584 -0.03407093 -0.018748771 0.015164115
000350 2e 1a cf bc 04 da a6 bc c0 22 95 bb 32 b3 90 3c
       -0.025281038 -0.02036763 -0.0045512617 0.017663572
000360 00 92 64 39 2e 97 d9 bc 66 e2 a7 3c 42 f9 a0 bc
       0.00021798164 -0.026561346 0.020493697 -0.019650105
000370 e4 d4 ce 3c a9 a6 93 bc 0c 62 bd bc 3c 02 0c 3d
       0.025247999 -0.018023806 -0.023118041 0.03418182
000380 40 a7 6f bb 10 bb e3 bb 84 d9 ad bb 5e 70 0e bd
       -0.0036568195 -0.00694979 -0.005305471 -0.03477513
000390 ac eb 88 3c bc 62 a8 bb e4 03 cd 3c be 37 f2 bc
       0.01671394 -0.005138723 0.02502627 -0.029567596
0003a0 10 5e 12 3b 1e b1 12 3d c2 c3 12 bd ec de 2a bc
       0.0022333898 0.035813443 -0.03583122 -0.010429125
0003b0 80 88 12 3d c4 22 b1 3c 78 58 84 3b 44 16 c2 bb
       0.035774708 0.021623023 0.0040388666 -0.0059230644
0003c0 7e 30 aa 3c 08 b1 11 bd ab ff e5 bc fc bc a4 bb
       0.020775076 -0.03556922 -0.028076014 -0.0050274115
0003d0 08 ee 9c bb 0e 2f 87 3c 84 38 ed bc a0 04 52 bc
       -0.0047891177 0.01650193 -0.028957613 -0.0128184855
0003e0 fe c7 dd bc 92 33 d3 bc 84 81 c5 3c f4 7d 87 3c
       -0.027072903 -0.025781427 0.02410961 0.016539551
0003f0 3d 5f c1 bc bc 45 e9 3c 84 22 91 3c 26 93 77 bc
       -0.023604983 0.028475635 0.017716654 -0.0151107665

fc1.bias f4 [256]
000000 e0 cb 5e 3c ef 28 55 bd d2 8d a2 bc c8 22 31 3b
       0.013598412 -0.05204099 -0.019843016 0.0027028788
000010 d4 fd 82 bc 78 0b b6 bc a9 c0 85 3c 66 df 80 3c
       -0.015990175 -0.022222266 0.01632722 0.015731525
000020 91 95 08 bd 4d 7f 45 bc de e9 2d 3c be 5a 98 39
       -0.033345763 -0.012054277 0.01061484 0.00029059307
000030 fb 1d 40 3d d8 9c 07 bc 30 d8 1a bd c2 76 3a 3c
       0.04690359 -0.008277141 -0.03780383 0.011380853
000040 0a 93 ce bc 30 79 f0 bc ec 1f d3 bb b0 b1 d6 bb
       -0.025216598 -0.029354662 -0.0064430144 -0.0065519437
000050 6b 94 7f 3c 31 f4 0b bd 8d 8c ce bc 32 46 8d bc
       0.01559935 -0.034168426 -0.025213504 -0.017245386
000060 12 35 0d 3d 2c 58 7b 3c 20 e4 27 bb f3 31 b4 bc
       0.03447444 0.015340846 -0.002561815 -0.021996474
000070 ae dc f0 bb cc e4 d5 3a 7a 7c a5 bd 7a 69 2b bd
       -0.007350526 0.0016318797 -0.08080383 -0.041848637
000080 e5 fa f8 3b 1b fb 20 bd 32 a7 95 3c c0 14 4f bc
       0.0075982683 -0.039301973 0.018268202 -0.0126392245
000090 dd c6 03 bd 5e 78 87 3b a1 29 91 bc 66 31 38 3d
       -0.032172073 0.004134222 -0.017720046 0.044968985
0000a0 ea fb 8c bc e4 f4 02 3d e4 e3 02 bd 4f f0 6d bb
       -0.017209966 0.031971827 -0.031955615 -0.0036306565
0000b0 a2 1a c1 3b 74 0b 48 bc 1c d2 35 3c a2 c1 eb bc
       0.0058930675 -0.012209762 0.011097457 -0.028778855
0000c0 68 08 ab 3c 9a 90 9d bb f7 f7 16 3a ca f8 11 bd
       0.020878032 -0.0048084976 0.00057589955 -0.035637654
0000d0 d7 1a 65 bd 44 f5 01 3d 37 5e fa bc 76 67 82 3d
       -0.0559338 0.031728044 -0.030562503 0.0636739
0000e0 e1 0e 9c 3c f9 3e d2 3b 4f ad 39 bc 87 6c ed 3c
       0.019050064 0.0064161983 -0.011332824 0.028982414
0000f0 52 be f4 3b fc ba fa bb f6 cf 11 bd 5e 62 09 3d
       0.007468977 -0.007651685 -0.035598718 0.033541076
000100 e4 06 04 3c 54 d2 4b 3c 56 c8 a4 3a e7 00 62 bc
       0.0080582835 0.012440283 0.0012571912 -0.01379416
000110 6f 3e 11 3c 28 6a 20 bd 87 5b 02 bd fc aa 55 bc
       0.008864983 -0.03916374 -0.03182557 -0.013041254
000120 d8 bb 21 3c 0c 10 1d bc 3a 55 2b bc ca a8 25 bc
       0.009871446 -0.009586345 -0.010457331 -0.010111043
000130 03 94 ad bc cc 4b d5 bb 73 4f d8 bc e6 82 7c bc
       -0.021188742 -0.00650928 -0.026405072 -0.015412068
000140 f7 f9 37 3d 26 a4 cd bc 28 5c 42 bd 14 4a a1 3c
       0.04491612 -0.025102686 -0.04745117 0.019688644
000150 c8 4b e2 3b 35 a3 21 bb f8 8b fe 3c 22 65 02 bd
       0.0069060065 -0.002466393 0.031072602 -0.03183473
000160 7e 32 13 bd ec 0e 0c 3d 0e 8c 16 bd 50 07 22 bd
       -0.035936825 0.034193918 -0.03675466 -0.039557755
000170 6c 84 38 3c d3 53 d1 ba e3 cd 02 3d 25 ab 5f bd
       0.011262041 -0.0015970416 0.03193463 -0.054606576
000180 45 94 81 bc 9d c8 03 3c c0 87 84 bb 97 cf 07 bd
       -0.01581777 0.008043435 -0.004044503 -0.033156957
000190 a8 bb 1e bd 1e 0e 17 3c 5c 45 5a 3c 62 42 16 3c
       -0.03875318 0.009219674 0.013322201 0.0091711
0001a0 80 99 32 3b 0b e2 33 bd d2 d4 fd 3c 80 32 9d bb
       0.0027252138 -0.043916743 0.03098527 -0.00479728
0001b0 8b b8 94 3c cc c5 35 3c 1b 39 b3 3b 15 ea c8 bc
       0.018154403 0.011094522 0.005469454 -0.024525682
0001c0 fe 55 94 3c d6 90 be 3b a0 67 d5 ba 00 53 1a b9
       0.01810741 0.0058156056 -0.0016281493 -0.00014717504
0001d0 98 ac 95 3b 50 12 6b 3c d8 ef 17 bd e3 32 e6 3b
       0.004567694 0.014347628 -0.037093967 0.007025109
0001e0 f4 c5 5b 3c 42 04 7b bc 80 06 d7 3a a9 61 a0 bd
       0.013413895 -0.015320839 0.0016405135 -0.07831127
0001f0 c2 47 21 bd 0a 6a aa 3d 7c fe 0f bc 54 01 1e bd
       -0.039375074 0.083210066 -0.008788701 -0.038575485
000200 28 97 f6 3b 61 5a a0 3c 41 f2 f4 bc d1 12 de bc
       0.0075253434 0.019574346 -0.029900672 -0.027108582
000210 2f 55 68 bb f5 0c ae bd 20 2d e2 3b ba bd 0a bb
       -0.0035451164 -0.08498565 0.006902352 -0.0021170215
000220 26 d3 a9 bc 6d 3c 0e bd f0 89 6c 3b b4 38 27 bc
       -0.020730566 -0.034725595 0.003609296 -0.01020639
000230 34 1a f5 3c a2 e0 de bc 00 a0 b7 38 43 19 9a bc
       0.029919721 -0.027206723 8.755922e-05 -0.018810874
000240 18 c8 0a 3c 4e b4 c4 3c 0c b0 5b 3c ae 12 ac bc
       0.008470558 0.024011757 0.013408672 -0.021005
000250 42 b2 c4 3c 40 f2 6b 3c cc 95 fe 3c ce 1d 3f bd
       0.024010781 0.014401019 0.031077288 -0.046659283
000260 e7 fa 12 bb 58 af 60 3c 90 9c 27 bc 5e 2c 31 3e
       -0.0022427381 0.01371368 -0.0102301985 0.17302081
000270 15 fa f9 bc 57 db 8e bc 68 53 d7 bc ea db 7a bc
       -0.030514756 -0.017438574 -0.026284888 -0.015311221
000280 af c6 8d bc f2 75 20 bd 3b 5d 56 bb b0 5d 25 bc
       -0.017306654 -0.03917498 -0.0032709378 -0.010093138
000290 4d ff 23 bd b6 60 ab bc 95 b9 9b 3c d8 dc fd bc
       -0.040038396 -0.020920139 0.01900939 -0.030989096
0002a0 13 9b 39 3d f6 18 7a 3d 0c c6 80 bc ae 69 d3 bc
       0.045313906 0.06105896 -0.015719436 -0.025807228
0002b0 54 2a a4 bb 36 b2 bd bc 10 3a 04 3d f4 c0 eb 3c
       -0.0050099287 -0.023156267 0.032281935 0.02877853
0002c0 c3 0a 9b bc dc 5f 0a 3c ff 54 79 bc 2a 46 ca 3c
       -0.01892603 0.008445706 -0.015218019 0.02469166
0002d0 f5 9a 00 bc 60 77 dd 3a d4 5c e8 3c e6 42 92 bb
       -0.007849445 0.0016896538 0.028364576 -0.0044635413
0002e0 e7 ae df 3c 9c 45 15 bd 45 1f f7 3b 0c d5 71 bd
       0.02730508 -0.036443338 0.0075415694 -0.059041068
0002f0 78 37 d0 bb a2 88 b3 bc fa 52 0a bd bf ae c4 bc
       -0.0063542686 -0.021915738 -0.03377054 -0.024009107
000300 d0 a1 80 b7 e2 c5 af bd e6 80 c3 bc 38 d5 ed 3c
       -1.5334139e-05 -0.08582665 -0.023865175 0.029032335
000310 ed 3b eb 3b d8 35 df 3b a9 eb f9 3c e5 8d 4a bd
       0.0071787746 0.0068118386 0.03050788 -0.049451727
000320 a4 d7 14 bd 60 0c 2e 3b 68 ca d2 3c e0 20 21 3c
       -0.036338463 0.002655767 0.02573128 0.009834498
000330 f4 a4 23 bd 42 0b f9 bc 8c a8 ed 3c 57 ef e2 bc
       -0.039952233 -0.030400876 0.029011033 -0.027702017
000340 76 b1 62 bc f9 92 9a 3c 73 fd 9b bc 32 f6 a5 3c
       -0.013836255 0.01886891 -0.019041752 0.020258997
000350 f6 ee 8a bd 6c 85 94 3c 07 87 7d bd 24 1a 08 bb
       -0.067838594 0.018130027 -0.06189635 -0.0020767534
000360 83 4f 06 bd 67 62 4b bd ce 79 68 bc a6 75 d5 3c
       -0.032790672 -0.04965439 -0.014189197 0.026057076
000370 87 0d ca bc 9e d5 ff bc 36 75 49 bd c1 bd 0c bd
       -0.024664653 -0.03122979 -0.049184047 -0.03436065
000380 72 cb a8 3b 73 c0 10 3d 3c ad 0a bd bd 61 0c bd
       0.0051512057 0.035339784 -0.033856615 -0.034272898
000390 60 95 fd 3c b8 61 07 bd e8 6a 9d bc 88 63 3e bc
       0.030955017 -0.033052176 -0.019216016 -0.01162041
0003a0 5c f3 f0 3c 58 e1 6f 3c b5 62 c3 bc a4 4e 12 bd
       0.029412918 0.0146411285 -0.023850778 -0.03571953
0003b0 e6 52 e9 bc ea a4 06 bc ac 64 0b 3d 40 a4 15 3a
       -0.028481912 -0.0082180295 0.034031555 0.0005708374
0003c0 96 67 84 bc a9 e2 f6 bc b9 02 80 3d 40 77 ae 3a
       -0.016162675 -0.030137377 0.06250519 0.0013310686
0003d0 15 89 12 bd 40 ad ea 3c 85 0c b7 bb 9f 01 e0 bc
       -0.035775263 0.028647065 -0.0055862092 -0.027344523
0003e0 15 2c b8 3c 40 c9 8d 3c 31 63 80 3c 56 a3 10 bd
       0.022481957 0.017307878 0.015672298 -0.03531202
0003f0 fa 18 aa 3c 5e ce 6b bd 05 5f ff 3b 60 10 ea bb
       0.020763863 -0.057569854 0.0077933096 -0.0071430653

fc2.weight f4 [6, 256]
000000 00 c7 e7 ba 27 0a 8e bf ae 62 31 bd bd 90 b1 bc
       -0.0017683208 -1.1096848 -0.043307 -0.021675462
000010 20 5a a1 3c 4c ae 6e 3b 84 fd 23 bd f9 82 d0 bc
       0.019696295 0.0036419807 -0.040036693 -0.025453078
000020 e8 9a 95 3e f7 86 ba bd 42 35 8a 3d 98 a2 4c 3d
       0.29219747 -0.09107774 0.06748439 0.04995975
000030 22 10 ea 3e 4d 81 bf 3b c2 78 e8 bd 59 4d d8 bb
       0.45715433 0.0058442713 -0.11351158 -0.0066010174
000040 a0 82 71 bb 68 71 62 3d ee 81 47 bd 00 e5 aa 3b
       -0.003685154 0.055283934 -0.048707895 0.005215287
000050 7a ac 84 3b e4 65 65 3d 32 46 51 3d 38 f3 54 bc
       0.004048881 0.056005374 0.051092334 -0.012997441
000060 00 c7 f1 b9 58 d0 d3 3c c0 08 e1 3c aa 71 19 bf
       -0.0004611537 0.025856182 0.027469993 -0.5993906
000070 42 27 a7 bf 18 0d b8 3c 6a 6c 9f bf a3 3d e7 3c
       -1.3058856 0.022467181 -1.245496 0.028227633
000080 1a c1 fa 3c 3d 00 0c 3f d8 2e 22 3c 58 ed b7 bc
       0.030609656 0.54687864 0.009898864 -0.022452042
000090 4a 0d 09 3d 20 e1 09 3d 00 db 74 3d fa cb 29 3d
       0.03345994 0.03366196 0.059779167 0.041454293
0000a0 59 f5 cd 3b 70 57 8c 3b f8 dc 7b 3d f3 c4 c8 bf
       0.0062853512 0.0042828843 0.06149003 -1.5685104
0000b0 65 8f cb be 93 6f c9 3c 4c 4f 5a bd 00 57 fa bb
       -0.3975784 0.024589336 -0.05329828 -0.0076397657
0000c0 98 52 3e 3c e0 39 90 3d 90 72 34 bd e4 67 29 3d
       0.011616372 0.07042289 -0.044054568 0.041358843
0000d0 5d 7a 08 bf 08 7c 36 bc 78 cc 67 3d c1 db 65 3d
       -0.5331171 -0.01113797 0.05659148 0.056117777
0000e0 49 d6 b5 3c 52 e4 53 3d 8f e8 48 3d de 59 86 bd
       0.022196906 0.051731415 0.04904991 -0.065601096
0000f0 6a 11 ce bc 1c 66 fb 3c f2 a5 90 be a4 bd d2 bc
       -0.025154788 0.030688338 -0.28251606 -0.025725193
000100 b0 85 b9 bb 2f 40 7b 3f 0b 8f 9e 3e 63 79 a8 3d
       -0.0056616887 0.9814481 0.30968508 0.08226278
000110 8f b3 a5 bd 46 3e d0 3e 40 49 f1 bc 17 e3 b8 bf
       -0.08090889 0.4067251 -0.029453874 -1.4444302
000120 30 c9 1f 3c a3 cf ce bc 1e 5b 78 3d ce ad 0e 3d
       0.009752557 -0.025245493 0.06063377 0.03483372
000130 88 66 6a bc 26 4f 6f 3d ec 9f 5e 3d 78 fc b0 3c
       -0.014306672 0.05842509 0.054351732 0.021604761
000140 97 c6 db 3f 23 b2 f8 bc 52 b8 b4 3a ee 0a 4d 3d
       1.716998 -0.03035838 0.0013787842 0.05005925
000150 d4 24 11 3d 41 b6 0a 3d f0 a3 33 3c 4c bf 33 3d
       0.035435513 0.033865217 0.010964379 0.043883607
000160 c6 da 66 3d 40 ad e4 3c ca d9 54 3f 60 b1 0f bf
       0.056360982 0.027914643 0.8314482 -0.5613003
000170 de c6 58 3d 0f b6 d5 3c dd ac 63 3c 55 45 61 3c
       0.05292403 0.026087789 0.013896194 0.01374944
000180 c4 12 52 bf 08 a5 a9 bf 4c c8 40 bd c1 cd 02 bd
       -0.82059884 -1.3253489 -0.047066018 -0.031934503
000190 93 7e 74 3d 5e 66 82 3d fa 3b 32 3d f0 68 84 3e
       0.059691023 0.06367181 0.04351423 0.2586131
0001a0 80 7b 25 3b f4 1c 5d 3d 97 48 1b 3f b4 3c ff 3c
       0.0025250614 0.05398269 0.6065764 0.031156875
0001b0 d6 ca 3c 3d f0 82 ce 3c 52 8e dd bc 1c 12 ac 3e
       0.046091877 0.02520892 -0.027045403 0.33607566
0001c0 c1 6e d5 3c 33 99 bc 3c 22 4c 42 bd 64 7d 3b 3d
       0.026053788 0.02302227 -0.047435887 0.04577388
0001d0 78 f6 e2 bc b8 26 72 3d 77 0f 31 3e b5 87 2b bd
       -0.027705416 0.059118956 0.17291056 -0.041877467
0001e0 70 cc 73 bc 40 7e ad 3b d0 59 37 3c 42 0a 5e bf
       -0.014880285 0.005294591 0.011190847 -0.867344
0001f0 e2 e7 b5 bb 37 d7 62 3f f3 6a f2 3c a4 43 ff be
       -0.005551324 0.8860964 0.029592013 -0.49856293
000200 60 5b 59 bb b1 0a 4d 3d ad d2 60 3d 1e 73 fc bc
       -0.0033166036 0.050059024 0.054888416 -0.03081661
000210 42 8e 21 bd e0 14 05 3f 11 d9 ff 3b 83 ea bd bd
       -0.03944231 0.5198498 0.0078078588 -0.09273245
000220 d2 31 0a bd 1c 6a 1e bd 9c f9 19 bd 1c 42 ae bc
       -0.03373892 -0.038675413 -0.03759156 -0.021271758
000230 ce 54 19 bd e6 6f 06 3d b0 54 a6 3b ea 8d 74 3d
       -0.03743439 0.03282156 0.0050760135 0.059705652
000240 f0 18 f6 3c 0e 93 18 3e 60 8d cf bb af d4 36 bf
       0.030041188 0.14899847 -0.006333992 -0.7141828
000250 37 7e 15 3d 8e 07 4e bd 42 36 3b 3d 6a ad 5c bf
       0.03649732 -0.050300173 0.04570604 -0.8620211
000260 00 e5 fd bc 4c 5d db 3c 72 05 47 bd fd 8c 34 3e
       -0.030992985 0.026777886 -0.048589177 0.17631908
000270 39 db 43 3c 02 7e 73 bd d8 01 47 bd 96 88 00 bd
       0.011954122 -0.059446342 -0.048585743 -0.03138026
000280 00 9b ee bc 3b 3b c9 bd 13 88 86 3e 88 5b db bc
       -0.029126644 -0.098257504 0.2627569 -0.026777044
000290 9a 1d 13 bc 14 15 b1 bc 9d 44 5c bc 5c a3 29 3d
       -0.0089792255 -0.021616496 -0.013444093 0.041415557
0002a0 a5 18 9e bf 51 53 16 be 90 0d 29 3d b0 fc 49 bc
       -1.2351271 -0.1468022 0.0412727 -0.012328312
0002b0 90 68 38 3c ba fc 45 3e 14 e4 b9 bc 18 c3 14 3d
       0.011255398 0.19334689 -0.022691764 0.03631887
0002c0 fe 36 6f 3e 80 16 b5 ba 16 6b 16 c0 38 f3 11 3c
       0.23360822 -0.001381591 -2.350286 0.0089080855
0002d0 c4 5d 80 3c c0 f0 a1 bc 6c 0d 1e bd 15 91 0d 3c
       0.015669711 -0.019768119 -0.03858702 0.008640547
0002e0 77 a1 85 37 1b e9 03 3e c2 ea 41 bd e7 92 36 3e
       1.5930023e-05 0.12881891 -0.047343023 0.17829476
0002f0 4e 98 7c 3d a0 7b 6c 3c 94 27 84 3c 88 0c 45 3f
       0.061668687 0.014433771 0.016132154 0.76972246
000300 de a0 8c bd d2 40 45 3b 94 6c 7a bd 80 40 a0 3a
       -0.068666205 0.003009845 -0.061138704 0.0012226254
000310 d8 1a 51 bc 35 ca a3 bf 74 63 9e 3e 6a 17 9b bd
       -0.012762748 -1.2796084 0.30935252 -0.07572825
000320 50 52 08 bf 3b d3 2b bf b8 1e 5f bd 70 93 de bc
       -0.532506 -0.6711919 -0.054472655 -0.027169913
000330 46 27 f2 bc 46 d9 4e 3d c9 27 99 3b b9 46 ed be
       -0.029559743 0.050500177 0.004673932 -0.4634302
000340 be 02 3b bd c2 30 ce 3c 4b 1d e1 be ca a5 51 bd
       -0.045656912 0.025169734 -0.4396766 -0.0511835
000350 08 bc 18 3f ce 4e 11 3d 18 cb 38 bf 5b ff 6a 3e
       0.5966191 0.035475545 -0.72184896 0.22948973
000360 24 4a 29 bd 28 b6 7a bf 80 77 11 3c 28 ce 92 be
       -0.04133047 -0.979342 0.008878589 -0.2867291
000370 ed f5 da 3b 44 22 02 c0 60 0a 3d be 74 09 e0 bc
       0.0066821487 -2.0333414 -0.18460989 -0.027348258
000380 b1 26 c7 bf be 8d 11 bf fa 1d 3c 3c 2c cd c3 3e
       -1.5558683 -0.56856906 0.011481756 0.3824247
000390 86 1b 3d bd e8 6d 6e bd 73 d0 2f bf fe 4c 2b 3d
       -0.046168827 -0.058210284 -0.68677443 0.041821472
0003a0 40 aa 66 bb b0 ec 35 3d 29 ce ad be c8 ca 6e bf
       -0.0035196692 0.044415176 -0.3394635 -0.9327817
0003b0 28 0d 8b 3c 58 a3 a5 bc 4c 7f b6 bc a4 4b b2 bc
       0.016974047 -0.02021949 -0.022277497 -0.021764584
0003c0 42 c6 35 bd a0 4e 78 bc 0d 65 04 3f 68 fa 03 3c
       -0.044378527 -0.015155464 0.5171669 0.008055307
0003d0 a8 ed 66 3c 9c ed b4 3c e7 3f 7e 3f b4 6e 6d 3d
       0.014094748 0.022085957 0.9931626 0.057966903
0003e0 19 25 08 3c 38 e9 16 bd 46 11 f1 3c ae ca 88 3e
       0.008309626 -0.03684351 0.029427182 0.26717132
0003f0 ac 7b 62 3d df 04 d6 bf 73 48 cf 3c 5d da 01 bd
       0.055293724 -1.6720237 0.025303101 -0.031702388

fc2.bias f4 [6]
000000 d2 07 4f 3e 83 1d 64 3e 0f 89 4b 3e 70 19 ed 3e
       0.20217827 0.22276883 0.19876502 0.4630847
000010 62 da 49 be 42 cc 3e be
       -0.19712213 -0.18632606
