BCEval/bc_models/forced_coordination/agent1_policy.pth (torch, 795712 bytes, 4 tensors)

fc1.weight f4 [256, 768]
0	0xbc9f7240	-0.019463658
1	0xbca559e1	-0.02018446
2	0x3d07f19a	0.033189394
3	0x3ce7b4d8	0.028284475
4	0x3bc4ffa0	0.006011918
5	0xbc4bcd4e	-0.012439085
6	0xbaed5a40	-0.0018108562
7	0xbc8956b3	-0.016764974
8	0xbbd88070	-0.006607108
9	0xbd0a3252	-0.033739395
10	0xbaf51100	-0.0018697083
11	0x3c326530	0.010888383
12	0xbcb6ffcc	-0.02233877
13	0x3d03638a	0.03207735
14	0xbccd932a	-0.025094587
15	0xbad1d740	-0.0016009584
16	0xbc007386	-0.007840043
17	0x3c200230	0.009766147
18	0x3cc2c22c	0.023774229
19	0xbcec5f37	-0.028853996
20	0x3b9db440	0.0048127472
21	0x3c738e4c	0.014865469
22	0x3d06479e	0.032783143
23	0x3ca39a84	0.01997114
24	0x3d0d7672	0.034536786
25	0xbc5663e0	-0.0130853355
26	0xbc254e38	-0.01008945
27	0x3c07eac0	0.008295715
28	0xbc2a7328	-0.010403432
29	0x3c8cd886	0.01719309
30	0x3bb44e00	0.0055024624
31	0xbc33d11c	-0.0109751485
32	0xbd07d0fe	-0.033158295
33	0xbcf30e23	-0.029669827
34	0x3c848600	0.016177177
35	0x3cc33796	0.023830216
36	0x3d0befb2	0.03416414
37	0x3c5e0fac	0.013553541
38	0xbd0e4093	-0.03472955
39	0xbca53d46	-0.020170819
40	0xbb719b40	-0.0036866218
41	0x3b408d00	0.0029380918
42	0xbcf1868f	-0.029483108
43	0xbccd30a7	-0.025047613
44	0x3c6837fc	0.014173504
45	0xbae832e0	-0.0017715357
46	0xbceb95a8	-0.028757885
47	0x3cb6b14a	0.022301335
48	0x3c83b812	0.016078983
49	0x3c232c24	0.009959254
50	0x3d05b890	0.032646716
51	0xbc8108be	-0.015751239
52	0xbb899228	-0.0041983314
53	0x3c4e0258	0.012573801
54	0xbcedb24d	-0.029015685
55	0xbce3cca2	-0.027807537
56	0x3c56f408	0.013119705
57	0xbd062224	-0.032747403
58	0xbc2ec734	-0.010667611
59	0xbbc4f050	-0.006010093
60	0xbc98e9a1	-0.01866609
61	0xbc8a749b	-0.016901305
62	0xbc5b6ace	-0.013392163
63	0xbc9da1b7	-0.01924215
64	0x3d0a8cbe	0.03382563
65	0xbce31674	-0.027720667
66	0x3cae36c6	0.021266352
67	0xbd0ddae5	-0.034632582
68	0x3d0bd076	0.03413435
69	0xbaf43e80	-0.0018634349
70	0x3c9ab2e2	0.018884126
71	0xbd101050	-0.035171807
72	0xb8d72a00	-0.00010259822
73	0xbc1e3220	-0.009655505
74	0x3c6355cc	0.013875436
75	0x3c91c3ee	0.017793622
76	0xbcdc3f88	-0.026885763
77	0x3ab0dbc0	0.0013493225
78	0xbc68c0e4	-0.014206145
79	0xbbf831e8	-0.0075743087
80	0x3c8d6fa0	0.017265141
81	0x3c7c1c3c	0.015387591
82	0xbcc5ca67	-0.024144365
83	0x3ca270ba	0.019829143
84	0x3c936358	0.017991707
85	0x3bacd848	0.005274806
86	0x3c3125e0	0.010812253
87	0xbcae7e9c	-0.021300606
88	0xbd10ab8f	-0.03531986
89	0x3ca7149c	0.02039557
90	0xb7ad6800	-2.0671636e-05
91	0xbbfbbd50	-0.00768248
92	0xbccd68ac	-0.025074326
93	0x3cba60d0	0.022751242
94	0xbc5039fe	-0.012709139
95	0x3c7de800	0.015497208
96	0xbcb01314	-0.021493472
97	0xbac743c0	-0.0015202686
98	0x3cb7d618	0.022440955
99	0xbd0e0a2c	-0.03467767
100	0x3cefc55c	0.029268913
101	0xbcb1cea1	-0.021704974
102	0x3a0eebc0	0.00054519996
103	0xbd07f65f	-0.033193942
104	0xbc8a1679	-0.016856419
105	0xbcc73590	-0.024317533
106	0x3b9f85e0	0.004868254
107	0x3cf9ed9c	0.030508809
108	0x3c371eec	0.011176806
109	0x3cc3a532	0.023882482
110	0xbaefccc0	-0.0018295273
111	0xbccfafdc	-0.025352411
112	0x3c87b8c2	0.016567592
113	0x3ccf0728	0.025271967
114	0xbc79f724	-0.015256677
115	0x3cae9208	0.021309868
116	0x3d0b27c6	0.033973478
117	0x3b5c8b00	0.0033652186
118	0x3cc361e4	0.023850389
119	0xbba57ee8	-0.005050529
120	0x3ccc58be	0.02494466
121	0xbc814be5	-0.01578326
122	0x3c30566c	0.010762792
123	0xbc87172e	-0.016490545
124	0x3bba49f0	0.0056850836
125	0x3b848108	0.004043702
126	0xbcecbc6c	-0.02889844
127	0xbd07835e	-0.033084266
128	0x3c2e67e4	0.010644887
129	0xbd084005	-0.03326418
130	0x3aafb6a0	0.0013405867
131	0xbc6a552e	-0.014302535
132	0xbc9184a9	-0.017763453
133	0x3be99e38	0.007129457
134	0x3cc182f0	0.023622006
135	0x3a8b3880	0.0010621697
136	0x3a9c0960	0.001190465
137	0x3cde1428	0.02710922
138	0x362e4000	2.5965273e-06
139	0x3c561bc0	0.01306814
140	0xbd00acb2	-0.031414695
141	0x3c23e3d8	0.010003053
142	0x3c83be6c	0.016082011
143	0xbbe32558	-0.006931942
144	0x3c43fe20	0.011962444
145	0xbb54c2e0	-0.0032464787
146	0x3b217a90	0.0024639703
147	0xba367540	-0.00069602206
148	0xbcde5c8e	-0.027143743
149	0xbd0a800b	-0.033813518
150	0x3c4a7a74	0.012358297
151	0x3c8c7692	0.017146382
152	0x3cfacf70	0.030616492
153	0xbce113ba	-0.027475227
154	0xbb078180	-0.0020676553
155	0xbbbe7010	-0.0058116987
156	0xbcf831a2	-0.030297104
157	0xbce4c8f0	-0.027927846
158	0xbaffb460	-0.0019508712
159	0xbbeac298	-0.0071643107
160	0x3caab35a	0.020837475
161	0xbc8f5267	-0.017495347
162	0xbb55d0c0	-0.0032625645
163	0xbce17317	-0.0275207
164	0x3d033d16	0.032040678
165	0x3d104bd2	0.035228558
166	0x3b888f98	0.0041675083
167	0x3c5c3ba0	0.01344195
168	0x3c2e5ec8	0.010642715
169	0x3b9d9df8	0.004810091
170	0x3b1b39f0	0.0023685656
171	0xbccee57b	-0.02525591
172	0x3cc96224	0.02458293
173	0xbcbf46ce	-0.023349192
174	0x3ca02f0a	0.01955368
175	0xbce78378	-0.028260931
176	0x3ce5f34c	0.028070115
177	0xbbd6fa40	-0.006560594
178	0xbb952010	-0.0045509413
179	0xbc787eb4	-0.015166927
180	0x3c6ae064	0.014335725
181	0xbca74c11	-0.020422013
182	0xbc5e2bee	-0.013560278
183	0xbd0e8fb4	-0.034805015
184	0x3c775d24	0.01509789
185	0xbb999e08	-0.0046880282
186	0xbb5d9f60	-0.0033816919
187	0xbcb646ba	-0.022250522
188	0xbd0282ee	-0.031863146
189	0xbcebbee2	-0.028777543
190	0x3c81beec	0.015838109
191	0xbcda4b48	-0.026647225
192	0x3d0b2e60	0.033979774
193	0xbd08b9d9	-0.033380363
194	0xbc673a3a	-0.014113003
195	0xbcf5c07f	-0.029999016
196	0xbb6085a0	-0.0034259334
197	0xbd0de2bb	-0.034640055
198	0x3cc2e33a	0.02378999
199	0xbca2b691	-0.019862445
200	0x3a5817c0	0.0008243285
201	0xb9a3a100	-0.00031209737
202	0xbccac606	-0.024752628
203	0x3c5262e0	0.012840956
204	0x3c8ccc54	0.017187275
205	0xbcad6c47	-0.021169795
206	0xbccb0892	-0.02478436
207	0x3cb6f38e	0.022332933
208	0xbcdc3ea1	-0.026885333
209	0xbca08fbd	-0.01959979
210	0x3b7dcd80	0.0038727224
211	0xbcb4a640	-0.02205193
212	0x3c2a2dfc	0.01038694
213	0xbcb3b1a5	-0.021935293
214	0xbc6622fc	-0.014046427
215	0xbc373dd6	-0.011184176
216	0x3b330340	0.002731517
217	0x3d021268	0.031755835
218	0xbc4019a2	-0.011724861
219	0x3d05026a	0.032473005
220	0x3c3b9954	0.0114501305
221	0xbb11c6f0	-0.002224382
222	0x3acad1a0	0.001547385
223	0xbcf161c1	-0.029465558
224	0xbce7ad78	-0.028280959
225	0xbd073079	-0.03300521
226	0xba82fb80	-0.0009993166
227	0xbc80c8db	-0.015720775
228	0xba6c7880	-0.00090206414
229	0xbc7caa3e	-0.015421448
230	0xbccb3bd0	-0.024808794
231	0x3aaa63e0	0.0012999736
232	0x3bc9e900	0.006161809
233	0x3bc52e28	0.006017465
234	0x3d0a54fe	0.03377246
235	0xbc18dc5e	-0.009329883
236	0xbcc964f0	-0.024584264
237	0xbc542c88	-0.01295007
238	0x3ce0fa6c	0.02746316
239	0x3c69f414	0.014279384
240	0x3cb8938c	0.022531293
241	0xbcc264b9	-0.023729669
242	0xbd0fbb19	-0.03509054
243	0x3c8073aa	0.015680153
244	0xba9fe7c0	-0.0012199804
245	0x3cbd1160	0.023079574
246	0xbc6ebc90	-0.014571324
247	0xbd0e540a	-0.034748115
248	0x3c7c7648	0.01540906
249	0x3b8f9e20	0.0043828636
250	0xbd09d402	-0.033649452
251	0xbd086e84	-0.03330852
252	0x3c8979fc	0.0167818
253	0xbd04e384	-0.03244354
254	0x3c9bb072	0.019005034
255	0xbbe7bb48	-0.007071886

fc1.bias f4 [256]
0	0xbccb01b2	-0.024781082
1	0xbc81b20e	-0.015831973
2	0xbb8ad6bb	-0.0042370236
3	0xbaf1b36c	-0.0018440313
4	0x3b187381	0.0023262205
5	0x3b92dd20	0.0044819266
6	0x3c80a68a	0.015704412
7	0xbd123d0a	-0.035702743
8	0x3cbe2f0a	0.02321579
9	0x3d033d84	0.032041088
10	0x3c613296	0.013744971
11	0xbd22738b	-0.03966097
12	0xbcaaf8a3	-0.020870512
13	0x3cd04e40	0.025427938
14	0xbd3bf760	-0.045890212
15	0xbc4a1839	-0.012334877
16	0x3ad089eb	0.0015910243
17	0xbcffad51	-0.031210573
18	0xbd07d136	-0.033158503
19	0xbcd9af20	-0.026572764
20	0x3ccd7098	0.025078103
21	0xbc61ce8c	-0.013782155
22	0xbd0b3da4	-0.033994332
23	0xbbd61252	-0.0065329457
24	0xbc95fcc7	-0.01830901
25	0xbcfd52fa	-0.030923355
26	0xbca9bcc0	-0.020719886
27	0xbd423b6a	-0.047419943
28	0x3a713636	0.00092014985
29	0xbd3771a6	-0.044786118
30	0xbbe8777a	-0.007094321
31	0xbc9817ff	-0.01856613
32	0xbd1ad10b	-0.037797015
33	0x3ccf78f2	0.025326226
34	0xbd242db3	-0.040082645
35	0xbd0cf71f	-0.03441536
36	0x3bf691b1	0.007524692
37	0x3cadd4ae	0.021219578
38	0x3bcc9c06	0.0062441854
39	0xbd1a7a24	-0.03771414
40	0x3c71ea4d	0.014765334
41	0xbc113b6f	-0.008864268
42	0x3cf3e815	0.029773751
43	0xbc6d389d	-0.01447883
44	0xbb379d00	-0.0028017163
45	0x3b60da6d	0.003430988
46	0xbd012486	-0.031528972
47	0x3c688390	0.014191523
48	0xbcf59356	-0.029977482
49	0x3ccf8b36	0.025334936
50	0x3b7b879d	0.0038380392
51	0xbc8e240f	-0.017351178
52	0xbcba6a62	-0.022755805
53	0xbd025793	-0.0318218
54	0x3a13fb80	0.00056450814
55	0xbc915b4d	-0.01774373
56	0x3c87bb8b	0.01656892
57	0xbd2b1747	-0.041770246
58	0xbc895244	-0.01676286
59	0xbc2db348	-0.010601826
60	0x3c329d5c	0.010901775
61	0xbcd56311	-0.026048215
62	0x3c5aa5e8	0.013345219
63	0xbd356d1a	-0.0442935
64	0xbcd4d699	-0.025981234
65	0xbcc7aae9	-0.024373489
66	0xbc12af42	-0.0089529175
67	0xbcc78518	-0.024355456
68	0x3b25ed47	0.002531843
69	0xbceb336f	-0.028711049
70	0x3cc7de00	0.02439785
71	0xbcfa1e6a	-0.03053208
72	0xbc089b44	-0.008337799
73	0x3b6be0f0	0.0035992227
74	0x3cfcd664	0.030863948
75	0x3d015126	0.03157153
76	0xbc1096ad	-0.008824986
77	0xbc9349a2	-0.017979447
78	0x3c81cbc3	0.015844231
79	0x3c457e2c	0.0120540075
80	0xbcf899bf	-0.03034675
81	0xbbe5ec00	-0.007016659
82	0x3c5a94ea	0.013341168
83	0x3ca0c38e	0.019624498
84	0x3ce2a34d	0.027665759
85	0xbc20c178	-0.009811752
86	0x3c430c46	0.011904782
87	0x3ceacc98	0.028662011
88	0xbc6b14a7	-0.014348186
89	0xbd14f393	-0.036365103
90	0x3c976569	0.018480973
91	0xbcf703ad	-0.03015312
92	0xbc8ba9c0	-0.017048717
93	0xbc65babe	-0.014021574
94	0xbcd07db9	-0.025450574
95	0x3ccd2988	0.025044218
96	0xbb2ea36a	-0.0026647695
97	0x3c57742d	0.013150257
98	0xbca66064	-0.020309635
99	0x3b82b144	0.003988417
100	0x3b9cce00	0.0047852993
101	0xbac0c7d1	-0.0014707987
102	0xbc4d0e70	-0.012515649
103	0x3ce3a905	0.027790556
104	0x3cadae43	0.021201259
105	0xbcd3d4be	-0.02585828
106	0xb8dc6eee	-0.0001051108
107	0x3cedcb44	0.029027589
108	0xbc159224	-0.009129081
109	0xbd1e55a9	-0.03865591
110	0xb9c8e72a	-0.00038319203
111	0xbd360aa0	-0.044443727
112	0xbce0d540	-0.027445436
113	0xbd0d12b6	-0.034441672
114	0x3ae2dd55	0.0017308394
115	0x3d0da0a7	0.03457704
116	0xbc9aad10	-0.01888135
117	0xbcd1603c	-0.025558583
118	0xbbb36914	-0.005475173
119	0x3ba0f640	0.004912168
120	0xbd1de9ed	-0.038553167
121	0xbca1dc0f	-0.019758252
122	0x3b80dd59	0.0039326367
123	0xbd0e8d59	-0.03480277
124	0xbc95d065	-0.018287847
125	0x3cdca754	0.026935257
126	0xbd116bd9	-0.035503242
127	0xbc8dd192	-0.017311845
128	0x3c958961	0.018253984
129	0xbcf30ca2	-0.02966911
130	0xbcaf241c	-0.021379523
131	0x3b36b249	0.0027877262
132	0xbd2b08a8	-0.041756302
133	0xbb868768	-0.004105497
134	0x3ca4903f	0.020088313
135	0x3bb5561b	0.005533946
136	0xbca994b8	-0.020700797
137	0x3beef610	0.0072925165
138	0xbc3f007b	-0.011657829
139	0xbc0db6ca	-0.008649537
140	0x3ca4f6ac	0.020137154
141	0x3c973bc4	0.018461116
142	0xbcc2fef9	-0.023803221
143	0xbcd4c37a	-0.025972117
144	0x3ca3c4b2	0.019991253
145	0xbcd4d091	-0.025978358
146	0x3c1834b6	0.009289911
147	0xbcef20a6	-0.029190373
148	0x3cc38cc2	0.02387083
149	0xbd4501f6	-0.048097573
150	0x3c31c501	0.010850192
151	0x3ce575b0	0.02801022
152	0xbcdf9379	-0.027292
153	0xbce9818e	-0.02850416
154	0xbcab5250	-0.020913273
155	0xbc7cb2f6	-0.015423527
156	0xbdab517c	-0.08365151
157	0x3cdf2f78	0.027244315
158	0xbcd18139	-0.025574313
159	0x3cd2c6f8	0.025729641
160	0x3ce0a348	0.027421609
161	0x3c0fb661	0.00877151
162	0xbd1d9287	-0.038469817
163	0xba9367e0	-0.0011246167
164	0xbd4447a7	-0.047919895
165	0xbcd14a06	-0.025547992
166	0x3c9c883f	0.019107936
167	0xbc09b705	-0.008405452
168	0x3cf223b9	0.02955805
169	0x3cb9d0eb	0.022682628
170	0xbcae7c26	-0.021299433
171	0x3c5ec484	0.013596658
172	0xbd001eab	-0.031279247
173	0xbd190bdd	-0.03736483
174	0xbc3068ee	-0.010767205
175	0xbcd340d7	-0.025787754
176	0xbc158c5a	-0.009127701
177	0xbd73d2e6	-0.0595273
178	0xbb071836	-0.0020613796
179	0x3c867cc2	0.016416911
180	0xbc0684eb	-0.008210401
181	0xbc9b5cc7	-0.018965138
182	0x3b8ef33b	0.0043624914
183	0xbc9e5aa8	-0.019330338
184	0xbcb24b1c	-0.02176433
185	0xbc38ae6c	-0.011272054
186	0x3c2b50d7	0.010456285
187	0xbd35427c	-0.044252858
188	0x3c9e3d70	0.019316405
189	0x3c16ec3c	0.009211596
190	0x3c821221	0.015877785
191	0xbd038b10	-0.032115042
192	0xbd0310f6	-0.031998597
193	0xbc4d7c1f	-0.0125418
194	0xbcca937d	-0.024728531
195	0xbc88f4eb	-0.016718348
196	0xbce85ccb	-0.02836456
197	0x3c306bd5	0.010767897
198	0xbd54b016	-0.05192574
199	0xbd2a4e77	-0.041578736
200	0xbcb600cc	-0.022217177
201	0xbc4f4aec	-0.01265214
202	0x3baafe63	0.0052183135
203	0x3c999048	0.018745556
204	0x3c57fdc7	0.013183064
205	0x3cb4f902	0.022091392
206	0x3c848c54	0.016180195
207	0xbc914b29	-0.017736034
208	0x3cbdcfae	0.023170318
209	0xbd06c66d	-0.032904077
210	0xbb505f70	-0.0031795166
211	0xbca5df22	-0.020248
212	0xbca882cf	-0.020570187
213	0xbba981e4	-0.005172955
214	0x3cc25c9e	0.023725804
215	0xbd242d58	-0.040082306
216	0xbcf0e9ba	-0.029408325
217	0xbcfbe127	-0.03074701
218	0xbd06b7c5	-0.0328901
219	0xbc8f4912	-0.017490897
220	0xbc8faa12	-0.01753715
221	0x3c1ca804	0.009561542
222	0x3d09d5c7	0.03365114
223	0xbaaff067	-0.0013423086
224	0xbd07d15c	-0.033158645
225	0x3c35ad6c	0.01108871
226	0xbcdf1ae0	-0.027234495
227	0xbd093904	-0.03350164
228	0xbd25cef1	-0.040480558
229	0xbd2c40ae	-0.04205387
230	0xbc4b2350	-0.012398556
231	0xbd107256	-0.03526529
232	0xbc885ba9	-0.01664527
233	0xbb262be0	-0.0025355741
234	0xbdfd875b	-0.12379333
235	0x3c032cd6	0.008006295
236	0xbd0b29c0	-0.033975363
237	0xbd177103	-0.03697301
238	0x3cf49dc4	0.029860385
239	0xbc8de95c	-0.017323188
240	0x3c2b7fab	0.01046745
241	0x3ccb5ceb	0.02482458
242	0xbb225a56	-0.0024773083
243	0x3cd35032	0.025795076
244	0xbd0998ed	-0.033593107
245	0x3bdd811f	0.006759777
246	0xbbccb400	-0.0062470436
247	0xbcb32604	-0.021868713
248	0xb9fa3000	-0.0004771948
249	0xbcc08881	-0.02350259
250	0x3c705113	0.014667767
251	0x3bc4d9d8	0.0060074143
252	0x3d004062	0.0313114
253	0xbb6b3dc0	-0.003589496
254	0xbca908aa	-0.020634014
255	0xbcc366be	-0.023852702

fc2.weight f4 [6, 256]
0	0x3d6a5e90	0.057219088
1	0x3e1f7d96	0.15575251
2	0x3e9e025b	0.30861172
3	0x3de2e710	0.11079228
4	0x3c36ca11	0.011156575
5	0x3d488824	0.04895796
6	0x3cf89780	0.030345678
7	0x3c1ec2c0	0.009689987
8	0x3cbea324	0.02327115
9	0xbd616cc2	-0.05503536
10	0x3cb50874	0.022098757
11	0x3d549aed	0.05190556
12	0xbdcbd04c	-0.09951839
13	0xbd173ab6	-0.036921225
14	0xbda674e1	-0.08127762
15	0x3cd20d90	0.025641233
16	0x3ddbc885	0.107316054
17	0xbcf36583	-0.02971149
18	0xbb835780	-0.0040082335
19	0xbcba7c05	-0.022764215
20	0x3a605674	0.00085578044
21	0xbc556b48	-0.013026066
22	0x3d7c6f2a	0.06162945
23	0x3e95f11c	0.29285514
24	0xbaaa8b7a	-0.0013011538
25	0x3b0f7160	0.0021887645
26	0xbd33f394	-0.043933466
27	0x3c0a69a9	0.008448043
28	0x3bc4bbab	0.006003817
29	0x3cca7e4e	0.02471843
30	0xbbfbe0dd	-0.007686718
31	0x3c8779e4	0.016537614
32	0xbdc9a5e5	-0.09846095
33	0xbd4ea776	-0.050452672
34	0x3b8e4d0a	0.00434268
35	0x3d06589e	0.032799356
36	0xbbdd2667	-0.0067489627
37	0xbe1d80a4	-0.15381104
38	0xbea31528	-0.31852078
39	0xbc90b55d	-0.017664606
40	0x3cd51d84	0.02601505
41	0xbb2352c2	-0.0024921154
42	0xbad404cd	-0.0016175747
43	0x3d01acc8	0.031658918
44	0xbca3b6fc	-0.019984715
45	0x3d3b2cca	0.04569701
46	0xbc75e6db	-0.0150086535
47	0xbd056c66	-0.03257408
48	0xbd35f0f4	-0.044419244
49	0xbd77f9de	-0.060541026
50	0x3cdf8d3e	0.02728903
51	0xbc5239b0	-0.012831137
52	0xbcc9f874	-0.024654604
53	0x3d07dcf4	0.0331697
54	0x3cd613c4	0.026132472
55	0xbf23cd46	-0.639851
56	0xbf79027f	-0.97269434
57	0x3d1ede2a	0.03878609
58	0x3dfa512a	0.12222512
59	0xbd05dda4	-0.032682076
60	0x3b87b260	0.004141137
61	0xbd578a76	-0.05262228
62	0x3c098e38	0.008395724
63	0x3e215d58	0.15758264
64	0xbd4f156f	-0.05055755
65	0x3b40fff9	0.0029449447
66	0xbd7dc99a	-0.06195984
67	0x3d2e3a73	0.04253621
68	0x3c5d5566	0.01350913
69	0xbc5f4b98	-0.013628863
70	0xbd1b7abe	-0.037958853
71	0x3d8a676c	0.067580074
72	0x3d517876	0.05114027
73	0xbd447ea6	-0.047972344
74	0x3d48604a	0.048919953
75	0xbd67ba80	-0.056574345
76	0x3d02fd2c	0.031979725
77	0x3cc18541	0.02362311
78	0xbd7f35f9	-0.06230733
79	0x3d6d97f8	0.058006257
80	0xbe156e02	-0.14592746
81	0xbc067d78	-0.008208625
82	0x3d263912	0.04058177
83	0x3d56e9c1	0.05246902
84	0xbd82b6c6	-0.063825175
85	0x3d18e528	0.037327915
86	0x3cac89a7	0.021061732
87	0xbdacfe72	-0.08446969
88	0x3e0c81c3	0.13721375
89	0xbddccf4d	-0.10781727
90	0x3d1be54e	0.03806048
91	0x3d6f5061	0.058426265
92	0xbac6bf00	-0.0015163124
93	0xbd471493	-0.048603605
94	0xbd628200	-0.05529976
95	0x3e21f4a3	0.15815978
96	0xbd150bba	-0.036388136
97	0xbd402765	-0.04691257
98	0xba303251	-0.0006721365
99	0x3d4ddb6c	0.050258085
100	0x3cd1ab78	0.025594458
101	0xbba6a2fd	-0.0050853477
102	0xbd3ffb90	-0.046870768
103	0xbd7e9000	-0.062149048
104	0xbc911003	-0.01770783
105	0x3cb48b94	0.022039212
106	0x3d0f3572	0.03496308
107	0xbd429782	-0.04750777
108	0x3d3bbc5e	0.045833938
109	0xbcaa8e8d	-0.020819927
110	0x3c0eebd5	0.008723219
111	0x3dd59536	0.1042885
112	0xbcca878d	-0.024722839
113	0x3be7e77d	0.007077156
114	0xbc021bc8	-0.007941194
115	0xbd96083f	-0.073257916
116	0x3d6e297e	0.05814504
117	0x3e68843f	0.22706698
118	0xbc244952	-0.010027247
119	0x3d50c89a	0.05097256
120	0x3d8a9e4e	0.067684755
121	0x3d1e8715	0.038703043
122	0xbc868ef3	-0.016425585
123	0xbd015cd2	-0.03158266
124	0x3cae8568	0.021303847
125	0xbc1a4dc8	-0.009417959
126	0xc06f11a0	-3.7354507
127	0xbcec27f0	-0.028827637
128	0x3d005247	0.031328466
129	0x3db4065a	0.08790274
130	0xbb6c5425	-0.0036060896
131	0x3d3e8b11	0.046519343
132	0xbe0edf06	-0.13952264
133	0x3ba8af70	0.005147867
134	0x3d04b82d	0.032402206
135	0xbd15e8d7	-0.036599007
136	0xbdf54eee	-0.11977945
137	0xbc5d13a8	-0.013493456
138	0xbe4d3553	-0.20039873
139	0x3ce72a62	0.028218452
140	0xbc0b5070	-0.0085030645
141	0x3d5e1752	0.05422146
142	0x3c827d02	0.015928749
143	0xbefdebcf	-0.4959397
144	0xbcc0de96	-0.023543637
145	0xbd075fde	-0.03305041
146	0xbcb31946	-0.021862637
147	0x3d729456	0.059223495
148	0x3d31abe2	0.04337681
149	0xbe1cc745	-0.1531039
150	0xbd4595d4	-0.04823859
151	0x3d586018	0.052826017
152	0xc111447d	-9.079221
153	0xbd555618	-0.05208406
154	0x3d5ee5bc	0.05441831
155	0xc048dd1c	-3.1384954
156	0x3fa4f76e	1.288801
157	0xbd20166e	-0.03908389
158	0x3cd6eb40	0.026235223
159	0xbcfb94b1	-0.03071055
160	0xbd695994	-0.056970194
161	0xc03e9406	-2.9777846
162	0x3d4ab802	0.04949189
163	0xbca1eda0	-0.019766629
164	0xbd8b4704	-0.068006545
165	0x3ca43290	0.020043641
166	0x3e1edef7	0.15514742
167	0x3c5f9750	0.013646916
168	0xbd8fc608	-0.07020193
169	0x3d05f463	0.03270377
170	0x3c357e28	0.011077441
171	0xbd5d6e4c	-0.054060265
172	0x3d2ee5d7	0.04269966
173	0x3d661a5f	0.056177493
174	0x3cda2a84	0.026631601
175	0x3d082a60	0.033243537
176	0x3cdb2b14	0.02675394
177	0xbd1a4bde	-0.03767001
178	0x3d52ebf6	0.05149456
179	0x3d635871	0.055504266
180	0x3cd94c38	0.026525602
181	0x39867a35	0.00025649523
182	0x3d54017e	0.051759236
183	0x3d0cc235	0.034364898
184	0xbd0582b6	-0.03259536
185	0xbc4b22c8	-0.012398429
186	0x3cd445d4	0.025912203
187	0xc00c4fb0	-2.1923637
188	0xbcd37bc4	-0.025815852
189	0x3d03e8cf	0.032204445
190	0x3e5c0d96	0.21489558
191	0xbd1c09c2	-0.038095243
192	0xbd212dc2	-0.03935028
193	0x3db1c2c3	0.08679726
194	0xbd838e09	-0.064235754
195	0xbdd3492d	-0.103166915
196	0xbd41beab	-0.047300976
197	0xbb0ae36f	-0.002119269
198	0xbea0e6c1	-0.3142605
199	0x3d32c071	0.043640558
200	0xbc86c0af	-0.0164493
201	0x3d383ae2	0.04497803
202	0xbd064885	-0.032784004
203	0x3d2c6e37	0.042097297
204	0xbcd03acc	-0.025418662
205	0xbc5ad5c0	-0.013356626
206	0x3d2856d8	0.041098446
207	0x3c391650	0.011296824
208	0x3b5de0e0	0.003385596
209	0xbc94b83c	-0.018154256
210	0xbd7560f0	-0.0599069
211	0x3d54826d	0.051882196
212	0x3d167890	0.03673607
213	0x3d005bec	0.031337664
214	0x3c71354b	0.014722179
215	0x3c508c9c	0.012728836
216	0xbc6561d8	-0.014000379
217	0xbe6beb94	-0.23039085
218	0x39d3f843	0.00040430026
219	0xbd058c93	-0.032604765
220	0xbd2f24e8	-0.042759806
221	0x3d07e368	0.033175856
222	0x3d1ace81	0.037794594
223	0x3d311ebd	0.043242205
224	0x3d89af48	0.06722885
225	0x3d1d6e5c	0.038435325
226	0xbca0995e	-0.019604381
227	0x3d7e44ce	0.062077336
228	0xbbc4536b	-0.0059913895
229	0x3d2272d0	0.039660275
230	0x3dc2bd58	0.09508771
231	0x3d4ffedc	0.050780162
232	0xbd5b009c	-0.053467378
233	0x3d6c5424	0.05769743
234	0xc01a1bec	-2.4079542
235	0x3d6292e0	0.055315852
236	0x3cbf9d57	0.023390455
237	0x3cbeea06	0.02330495
238	0x3cbe50bc	0.023231857
239	0x3d015b5a	0.03158126
240	0xbe94b699	-0.2904556
241	0x3ce1e0b4	0.027572967
242	0x3d39cac0	0.045359373
243	0x3ccb54f7	0.024820788
244	0xbbd8e9e0	-0.006619677
245	0xbc551da8	-0.013007559
246	0x3e0ed0b7	0.13946806
247	0xbbd92440	-0.006626636
248	0x3c4f40d0	0.01264973
249	0x3d082c99	0.033245657
250	0xbd36f401	-0.044666294
251	0x3d77ac90	0.060467303
252	0xbb39d680	-0.0028356612
253	0xbd2501a8	-0.040284783
254	0xbd663da0	-0.056211114
255	0x3d55a19e	0.052156083

fc2.bias f4 [6]
0	0xc07232e0	-3.7843552
1	0xbe72b0b7	-0.23700224
2	0xc009f8ff	-2.1558225
3	0xc000355b	-2.0032566
4	0xc0252b5d	-2.5807717
5	0xbfd19360	-1.63731
