BCEval/bc_models/forced_coordination/agent2_policy.pth (torch, 795712 bytes, 4 tensors)

fc1.weight f4 [256, 768]
000000 d0 b6 14 3c f4 87 84 bc 9e 17 03 3d e6 5f 9b 3c
       0.009076789 -0.016178109 0.032004945 0.018966626
000010 44 3b 9f 3c 04 89 68 bc e8 31 d1 3b 5b 85 ac bc
       0.01943744 -0.014192823 0.006384123 -0.021059683
000020 a8 5a b8 3c f8 a2 27 3c 39 a6 f1 bc 0c d9 f4 3c
       0.022504166 0.010231726 -0.029498206 0.029888652
000030 5e 27 bf bc e8 25 0a bd ee 3a b5 bc a5 e5 9c bc
       -0.023334201 -0.033727556 -0.022122826 -0.019152472
000040 80 f1 7e ba 88 ad a5 3c 1a cd a1 3c 32 93 9d 3c
       -0.00097253174 0.020224348 0.01975112 0.019235227
000050 94 32 0e 3d 8e b9 b1 3c b0 0c 8e 3b 07 8d 13 bd
       0.034716204 0.021694925 0.0043350086 -0.036023166
000060 d0 26 b8 bb 3e fd b1 3c de 64 01 3d 8a b4 e4 bc
       -0.005619861 0.0217272 0.031590335 -0.027918119
000070 01 2f a9 bc a0 60 ff 3c 00 6f e6 3b 70 a4 f2 3c
       -0.020652296 0.031174004 0.007032275 0.029619426
000080 38 23 48 3c 88 e9 a8 3c e8 e3 b3 bb 16 31 99 bc
       0.012215428 0.020619169 -0.005489815 -0.018700164
000090 ef d0 84 bc 96 f6 c5 bc fb df 03 bd 88 60 9f bc
       -0.016212909 -0.024165433 -0.032196026 -0.01945521
0000a0 b4 32 72 3c 3a 7d ba 3c 7c 90 1c bc e4 c2 a5 bc
       0.014782596 0.02276479 -0.009555932 -0.020234533
0000b0 1c 8b 3b bc a0 8d d1 bc 68 9c 63 3c a2 48 f9 bc
       -0.0114467405 -0.025580227 0.013892271 -0.030430142
0000c0 de ae b3 3c f9 2e 00 bd d0 aa ea bb f2 b4 a8 3c
       0.02193397 -0.031294797 -0.0071614757 0.020594094
0000d0 64 91 c6 bc dc d5 f5 3c 11 5e 0b bd 28 b8 a6 3b
       -0.02423925 0.030009203 -0.034025256 0.005087871
0000e0 24 ab 0c bc a8 84 0b 3c b8 77 c3 3b 80 c0 d8 39
       -0.008585725 0.008515514 0.0059651993 0.00041342154
0000f0 e0 c7 04 bb e0 5e d1 3a 74 cb e7 bb bd 9d b7 bc
       -0.0020260736 0.001597371 -0.007073814 -0.022414083
000100 24 4f d5 bc a0 a0 cf ba 40 03 32 bc e8 fd 92 3c
       -0.026038714 -0.0015840717 -0.010865033 0.017943338
000110 20 66 4a 3c a8 66 23 3c 64 cd 11 3d 1a cc c2 3c
       0.01235345 0.009973206 0.035596266 0.023778964
000120 89 45 d7 bc 54 04 dd 3c d8 1e b4 bc c6 81 b0 3c
       -0.026278274 0.026979603 -0.021987364 0.021546256
000130 e4 d7 e2 bc 58 06 fe 3b fe 92 b2 3c e2 c1 0b 3d
       -0.027690835 0.007752221 0.021798607 0.034120448
000140 78 c8 0a 3c c4 78 03 bd 00 98 78 3c b4 38 33 3c
       0.008470647 -0.032097593 0.015172958 0.010938812
000150 a6 43 07 3d c6 c8 14 bc a0 e7 11 3d ee 49 8f bc
       0.0330235 -0.009081071 0.035621285 -0.017491307
000160 e4 b0 aa 3c c7 a6 9d bc fb 79 ee bc 58 95 8a 3c
       0.020836301 -0.019244565 -0.0291109 0.016916916
000170 48 e7 f1 bb 70 a4 3e 3b 10 85 4a 3c 43 a1 0b bd
       -0.007382307 0.0029089712 0.012360826 -0.034089338
000180 bc 36 d2 3c c0 52 1e 3c 70 7b 78 3b e0 4c 58 3b
       0.025660865 0.009663284 0.0037915371 0.0033004805
000190 fa b0 bf bc 0c 57 e5 bc 30 04 8e bb 50 13 a4 3c
       -0.023399819 -0.027995609 -0.0043339953 0.02002874
0001a0 aa a9 a9 3c 34 a6 01 3d f0 9b 7f 3b 8a e0 c2 3c
       0.020710785 0.031652644 0.0039002858 0.02378871
0001b0 06 44 86 3c 02 3e aa bc bc 6b 9b 3c e4 f6 08 3d
       0.016389858 -0.02078152 0.01897227 0.03343858
0001c0 f8 44 82 3c 36 01 90 bc 98 83 f5 3c 00 6f 31 ba
       0.015902027 -0.017578702 0.029969975 -0.00067685544
0001d0 d8 ed f0 3c 80 fb 2e 3a 88 73 86 3b 28 4b d9 bb
       0.029410288 0.00066750497 0.004103128 -0.006631274
0001e0 70 44 c6 bc f2 7a de bc 53 7c 07 bd 7e 12 2c bc
       -0.024202555 -0.027158234 -0.03307755 -0.010502456
0001f0 e0 37 19 bb 70 bb d1 bb dc 72 c4 bc 3c 72 e9 3c
       -0.0023379251 -0.006400518 -0.02398055 0.028496854
000200 84 6b e3 bc 57 dd bb bc 1c f2 8b 3c 51 2c f6 bc
       -0.027761228 -0.022932691 0.01708322 -0.030050429
000210 2e df d6 bc 00 aa 11 3a 0a 1c dc bc 54 a3 97 bc
       -0.026229467 0.0005556643 -0.026868839 -0.018510498
000220 4c 4a 78 3c 26 1c 0d 3d 64 26 f2 3c fd f4 0f bd
       0.0151544325 0.034450673 0.029559322 -0.03514575
000230 c9 6a 9c bc 80 77 6b 3c a4 ae dc bc 00 6c 8b 39
       -0.019093888 0.014371753 -0.026938744 0.00026592612
000240 fe 78 c3 bc 1a 30 35 bc 2a f4 0f bd 68 a1 d1 3b
       -0.023861405 -0.011058832 -0.035144962 0.006397415
000250 8c e2 b9 bb c0 fe 10 3c 24 12 80 bc 00 10 b9 39
       -0.0056727584 0.0088498 -0.01563365 0.0003529787
000260 da 6b b2 3c 00 fc a5 ba 30 93 73 3b 98 bb 9b bb
       0.021779943 -0.0012663603 0.0037166588 -0.0047525875
000270 58 a5 80 bb 95 64 f8 bc 78 f5 b8 3c c0 f8 f9 3c
       -0.0039259605 -0.030321399 0.022577986 0.030514121
000280 ec d3 e9 bb f0 e5 f4 3b 44 a7 36 3c a0 7d 5b bc
       -0.0071358588 0.0074736997 0.011148278 -0.013396651
000290 ae 69 c3 3c 00 e8 12 38 b1 4c 81 bc 12 ed 08 3d
       0.023854103 3.502518e-05 -0.01578364 0.033429213
0002a0 e8 e1 55 3c c0 a6 e1 3c 04 96 06 3c 7e 53 3f bc
       0.0130543485 0.027545333 0.008214477 -0.011677621
0002b0 31 41 d1 bc e8 41 2b 3c 7c 10 6d 3c 80 f0 dd b9
       -0.025543781 0.010452725 0.014469262 -0.0004233159
0002c0 50 c7 8b bb 64 9a e5 3c 42 94 b8 bc 4a 0e d4 3c
       -0.0042657033 0.02802772 -0.022531632 0.02588572
0002d0 28 16 c4 bb 2e 8d 10 3d 26 6e 07 3d 7c 64 54 3c
       -0.0059840865 0.03529089 0.03306403 0.0129634105
0002e0 9c 7a d7 bb e6 75 56 bc 18 27 b5 3c f4 d2 5a 3c
       -0.0065758955 -0.013089633 0.022113368 0.013355959
0002f0 50 73 93 bc 98 94 f8 3c a6 a1 57 bc 08 03 dd bb
       -0.017999321 0.030344293 -0.013161099 -0.006744746
000300 d0 37 a5 3c 74 b3 49 3c 8e 29 da bc 80 4f 53 bc
       0.020168215 0.012310851 -0.026631143 -0.012897372
000310 48 1f fe bb f4 7d f5 bb 90 df a6 bc 08 12 f4 3c
       -0.007755194 -0.0074918214 -0.020370275 0.029793754
000320 76 34 a7 3c 98 6d eb 3b c4 be df 3c 38 a9 bd bc
       0.020410758 0.0071846955 0.027312644 -0.023151979
000330 8c 62 46 3c 01 c1 02 bd ce 7a 98 bc cd 97 80 bc
       0.012108456 -0.031922344 -0.018613245 -0.015697384
000340 cc 0d e7 3c 70 d4 31 3b 6c 7c 8f 3c 57 fb aa bc
       0.028204821 0.002713468 0.017515384 -0.020871801
000350 18 1c 90 bc 4c 73 05 bd 4b 3c 07 bd b8 54 74 bc
       -0.017591521 -0.03258066 -0.033016484 -0.014912777
000360 7a da 0e 3d 78 be 7f 3c 50 c0 83 3b f0 b7 27 bb
       0.034876324 0.015609376 0.004020728 -0.0025591813
000370 dc e6 ca bc 3c cf 30 3c 40 bf b7 3b 9c fc a4 bc
       -0.024768285 0.010791596 0.0056075156 -0.020139985
000380 2e da 00 bd 3e 2e cd bc 60 b8 e5 bc 0c 56 22 3c
       -0.031458072 -0.025046464 -0.028042018 0.0099082105
000390 7c e1 f4 bb 7a f5 14 bc ea b5 87 3c 78 0f ee 3c
       -0.007473169 -0.009091729 0.016566236 0.02906011
0003a0 20 f5 13 bb 94 bb 96 3c 1f f1 f6 bc a6 9a 55 bc
       -0.0022576526 0.018399991 -0.030144272 -0.013037359
0003b0 4c 54 09 bc 94 86 a3 3c 0e 85 3e bc 8c d6 39 bc
       -0.008381914 0.019961633 -0.011628402 -0.011342656
0003c0 c0 82 a1 bc 0b e1 82 bc 1e da b7 3c ae 49 08 3d
       -0.019715667 -0.01597645 0.022442874 0.03327339
0003d0 d8 60 a9 bb f8 5a 64 3c 98 52 c3 3c 00 d8 ec 3b
       -0.0051690154 0.013937704 0.023843095 0.0072278976
0003e0 ba fd 93 3c b4 a9 10 3d f4 16 9b bc 80 78 bc 3a
       0.018065322 0.03531809 -0.018931843 0.0014379174
0003f0 dc 0a e7 3c 44 db e9 3c 32 bb 0a 3d ce 18 ba bc
       0.02820342 0.028546937 0.03386993 -0.022716906

fc1.bias f4 [256]
000000 f6 ba 11 3d 69 51 ae bd e6 a4 30 3c d2 51 8f 3c
       0.03557869 -0.085116215 0.010781502 0.01749507
000010 62 e1 7a bc d8 e5 84 bc a6 29 3e 3c b0 6d e9 bc
       -0.0153125245 -0.01622288 0.011606609 -0.028494686
000020 5c fd 36 3c d0 83 dd 3c 38 98 83 3b 70 f7 f7 bc
       0.011168804 0.027040392 0.0040159486 -0.030269355
000030 48 b8 8b bc c3 2e 12 bd 6a 9e 46 bd e2 58 c7 bc
       -0.017055646 -0.035689127 -0.04849092 -0.024334375
000040 ec b0 9c 3c a0 ac d5 bc 20 cf 1a 3b 11 7b b6 bc
       0.019127332 -0.02608329 0.0023621991 -0.02227548
000050 50 66 5b bc 1a c1 6e bd f4 26 af bc 1f 34 67 bd
       -0.013391092 -0.058289625 -0.021380879 -0.05644619
000060 e0 b2 0f 3b 89 b7 80 bc 67 f8 0f bd cf e5 aa bc
       0.0021926686 -0.015712516 -0.035149004 -0.020861534
000070 a2 40 d1 3c 62 f7 3a bd fd 33 a2 bc 4d 11 f0 bc
       0.025543515 -0.04564608 -0.01980018 -0.029305125
000080 c5 3f 86 bd d8 78 07 bd 10 dd 67 bb 4c 57 ae bd
       -0.06555132 -0.03307423 -0.0035379566 -0.08512744
000090 c2 cc dc bc 30 ca 04 3c 6e 2a 24 bd 4e 19 08 3d
       -0.026953105 0.008104846 -0.040079527 0.033227257
0000a0 06 46 a8 bc ef b2 4b 3c a8 91 8d bc 36 12 21 bc
       -0.020541202 0.012432798 -0.017281368 -0.009831002
0000b0 e1 0a 3b 3c 31 87 0f 3c 0d f9 0d bd 8e a1 83 3c
       0.011416168 0.0087602595 -0.03466134 0.016068246
0000c0 63 bd a8 bc 20 85 8b bd 76 ef 8c bc f6 59 27 bd
       -0.02059812 -0.06812501 -0.017204028 -0.040857278
0000d0 0c eb c9 bc e8 00 17 bd 8d 6e 86 bb 8a 76 67 bd
       -0.024648212 -0.0368661 -0.004102534 -0.056509532
0000e0 fc 16 df bc e4 8a 53 3c ea fe 85 bc 35 e2 0f bd
       -0.02723264 0.012911532 -0.016356904 -0.035127837
0000f0 0b fd 53 3c 88 d6 aa bb cd d1 ae bc 82 82 4c 3a
       0.012938748 -0.0052135624 -0.021340275 0.00078014296
000100 e3 50 06 bd 9c 6e 38 bc 95 c9 45 bd ea 9d f9 bc
       -0.032791983 -0.01125684 -0.048287947 -0.030470807
000110 59 82 6b bd a4 b3 f5 3c e9 f8 30 bc 47 87 60 bc
       -0.057497356 0.029992886 -0.010801532 -0.013704128
000120 0f 01 0d bd 9d 1d c5 bc d5 1c 30 bd 6e ba c9 3c
       -0.034424838 -0.024061972 -0.042996246 0.02462503
000130 8f 65 2d bd fe d3 cf bc 5e 00 e5 bb 81 16 17 3c
       -0.042333182 -0.02536964 -0.006988569 0.009221674
000140 6b 77 85 bc 29 98 a8 3c 34 58 cb bb c0 ac 54 3c
       -0.016292294 0.020580368 -0.006205583 0.01298064
000150 44 d6 3e bd 53 55 8b bd 64 4f 67 bc f0 77 1b bd
       -0.04659106 -0.06803384 -0.014118049 -0.03795618
000160 f0 2f f7 bd f5 b5 f4 bc f4 7d 0b 3d 5d 5d cb bc
       -0.1206969 -0.02987192 0.034055665 -0.024824793
000170 48 38 e1 bc 6c 6e 78 3c 60 71 c3 3a 8e 63 5d bd
       -0.027492657 0.015163045 0.0014911108 -0.05405002
000180 a6 8f c2 bc 94 c0 f4 bb 00 32 6a 3c f4 8d 60 3c
       -0.023750138 -0.007469246 0.0142941475 0.013705719
000190 50 a6 6f bc c8 db 26 bc 1c 1c a8 3c d8 79 07 3c
       -0.014627054 -0.010184236 0.020521216 0.008268796
0001a0 d1 14 bc bc 9b a1 91 3b 88 1a 3b 3c d8 ff e8 3c
       -0.022959145 0.0044443137 0.0114199 0.028442308
0001b0 27 77 52 bd b6 34 10 bd 85 04 a5 bc 10 4e 19 bd
       -0.051383164 -0.03520652 -0.020143757 -0.03742796
0001c0 0a e7 94 bc d5 5b b8 3a 1e 6e 09 3d 69 5f 48 bd
       -0.018176574 0.0014065454 0.03355228 -0.048919115
0001d0 04 2c e9 bc 98 cf ce bc e1 dd 85 3c ac 9e 01 3c
       -0.028463371 -0.025245473 0.016341152 0.0079113655
0001e0 8a 74 1a bd 54 c8 73 3c 1e 2d ec ba 52 ff 86 3c
       -0.037708797 0.014879305 -0.0018018817 0.016479168
0001f0 96 9c be 3c fe 78 4a bc 80 55 7b bc 00 0c 1c 3b
       0.023268025 -0.012357948 -0.015340209 0.0023810863
000200 3f a5 1c bd cd 86 aa bc 2a 14 12 bd ef 40 8a bc
       -0.03824353 -0.020816231 -0.03566376 -0.016876666
000210 a5 be 28 3c 51 98 2e bd 6c 10 85 bd 74 51 c4 3c
       0.010299359 -0.04262573 -0.06497273 0.023964621
000220 60 35 9b bb e7 d0 62 bd 9c 79 1c bc e5 51 c2 bc
       -0.0047365874 -0.055375006 -0.009550478 -0.023720691
000230 24 88 03 bd 68 ca 7f 3c 20 35 2b 3c c4 d3 71 3c
       -0.032112256 0.015612222 0.010449678 0.0147599615
000240 60 c5 16 3b 6b c7 4b bc e8 04 4e bd b1 17 9c bc
       0.0023005828 -0.012437682 -0.050297648 -0.019054266
000250 19 0a ad bc 86 48 84 3c f0 a5 e3 3b 30 62 c1 3c
       -0.021122979 0.016147863 0.0069472715 0.02360639
000260 98 b9 99 bc 83 85 bf bb 86 36 46 bc 1c cf 9c bc
       -0.018765256 -0.0058447733 -0.01209796 -0.019141726
000270 fe 87 a3 3c b6 d3 b8 3c 3d a4 9c bd 7d f2 16 3c
       0.019962307 0.02256189 -0.076485135 0.009213087
000280 5c ba 5f 3c a8 4a ad bc 0e 13 bf bc 0d b1 85 bb
       0.013655271 -0.021153763 -0.023324516 -0.004079944
000290 36 14 1b 3c d2 04 01 bc 35 49 92 bc 82 2e 05 3d
       0.009465268 -0.007874684 -0.017857173 0.032515056
0002a0 c5 df 52 bc 76 4f a0 3c 22 7a 3b bc 54 07 96 bd
       -0.012870734 0.01956914 -0.011442693 -0.073256165
0002b0 dd 20 c6 3c 68 48 5e bc 54 43 ee 3c 40 9e 2e 3a
       0.024185592 -0.013567068 0.029084839 0.00066611543
0002c0 94 4d 98 bd f2 a7 92 bc af e7 06 bd 2d 30 0b bd
       -0.07436672 -0.017902348 -0.032935794 -0.03398149
0002d0 83 23 de bc bc 3f 9f bd a4 8b fa 3c 90 a1 13 bd
       -0.027116543 -0.07775828 0.030584164 -0.03604275
0002e0 8e 4e 12 bd 00 8a b4 b9 29 ff e0 bc 9c 0a 04 3d
       -0.035719447 -0.00034435093 -0.02746542 0.03223668
0002f0 e6 8e a6 bc e7 ae fe bc c3 9e 60 bc 78 aa 1d bc
       -0.020331811 -0.03108926 -0.013709727 -0.009623162
000300 fc 48 95 3c 72 da b8 bc 4c 9b 8b bc 4b e0 ae bc
       0.018223278 -0.0225651 -0.017041825 -0.021347186
000310 14 b0 b7 bc 22 4b 9f bd e2 99 17 bd 24 63 60 bc
       -0.022422828 -0.07778002 -0.03701199 -0.013695512
000320 58 66 b7 bc 50 c7 e4 3b fc 0b f8 bc 00 75 f5 bc
       -0.022387668 0.0069817677 -0.030279152 -0.029963017
000330 c0 60 8d ba 6f 55 a2 bd 5c 40 73 3c f6 c0 c6 bc
       -0.001078628 -0.079264514 0.014846887 -0.024261933
000340 25 76 04 bd 1a 1c 8e bd 67 a5 0c bc d8 8f da bb
       -0.032339234 -0.06938954 -0.008584357 -0.0066699795
000350 72 d3 3b bc 92 a8 95 bd eb 03 38 bd f9 85 d5 bc
       -0.011463987 -0.07307543 -0.04492561 -0.02606486
000360 50 11 f4 3c 56 1d d3 3c b0 0d 0a bd e9 05 30 3c
       0.029793411 0.025770824 -0.03370446 0.010743597
000370 85 81 1f bd 11 99 0d bd 9a 1c 33 bc 04 3d c0 bb
       -0.03894188 -0.034569804 -0.010932112 -0.0058666486
000380 7a 03 19 bd 9f 0d 19 bd 03 ab 29 bd 80 0b 01 bb
       -0.03735683 -0.037366506 -0.041422855 -0.0019690692
000390 b7 08 d9 bc 9d 29 2d bd 1d 21 04 bd c0 70 48 ba
       -0.026493413 -0.042276014 -0.03225814 -0.00076461956
0003a0 7c 1c 47 3c 04 f3 4f 3a d2 38 0c bd 8c 9e f1 bc
       0.012152787 0.00079326355 -0.034233876 -0.029494546
0003b0 77 01 9f bc f8 58 94 3c fb 33 84 bd 35 d3 eb bc
       -0.019409878 0.01810883 -0.06455227 -0.028787235
0003c0 ac e9 a8 3c 4a f7 52 bc da 5e c0 bc bc c4 61 bd
       0.020619236 -0.012876341 -0.023482729 -0.05511926
0003d0 d6 5f 77 bc b6 1b b4 3c 00 7c 05 3d ba e9 fb bc
       -0.015098533 0.02198587 0.03258896 -0.030751098
0003e0 48 c5 11 3c 03 73 d1 bd 80 c7 b1 bc f3 b1 02 bd
       0.008897133 -0.10227015 -0.021701574 -0.031907987
0003f0 5f 88 d9 bc 58 b9 44 bd 84 72 64 bc 19 96 04 bd
       -0.026554285 -0.04802832 -0.013943318 -0.032369707

fc2.weight f4 [6, 256]
000000 34 f6 7c bd 4d 6a 8d be c3 3f 2b bd c8 e8 21 bc
       -0.061758235 -0.27620164 -0.041808855 -0.0098821595
000010 9a 07 45 bd d8 46 38 bd ea 02 00 3d d1 dc 21 bc
       -0.048102953 -0.044989437 0.03125278 -0.009879307
000020 72 b6 67 3d 74 15 4f bd e4 30 ca bc 59 c0 31 bd
       0.056570478 -0.05055757 -0.024681516 -0.043396328
000030 e0 47 c8 3b 0d 9f ab bc fd 70 51 3d d4 42 68 3d
       0.006112084 -0.020949865 0.051133145 0.056704357
000040 0c 26 9f 3c 90 a0 37 3c 00 86 77 39 a4 1d 8c 3b
       0.019427322 0.011207715 0.00023605675 0.0042759944
000050 be 02 71 bd ac c7 08 bf 14 49 9b 3c 84 5c 48 3e
       -0.058840506 -0.53429675 0.018955745 0.19566542
000060 7e 5b 06 bd 24 71 f6 bc a8 5d d6 3c 42 e9 02 3d
       -0.032802097 -0.030083247 0.026167706 0.031960733
000070 fe fb 65 3d 20 5f ab 3b a6 5a 2b 3d cf 35 ac 3e
       0.05614852 0.0052298456 0.041834496 0.33634803
000080 36 cf 42 c0 64 14 33 3d 8c f6 d2 3c 03 71 13 bf
       -3.0438972 0.043720618 0.025752328 -0.5759432
000090 bc 84 49 bd 40 4d 1c bd 98 d2 2c bd e8 8e 97 bf
       -0.04919885 -0.03815961 -0.042193025 -1.1840487
0000a0 e4 27 4e 3d 5a e8 2b bd 98 eb 2b 3c 44 18 80 3c
       0.05033101 -0.041969635 0.010493182 0.01563657
0000b0 22 a9 d4 bc a9 d1 be bf b0 a1 f6 3c 1e d7 1d bd
       -0.025959555 -1.4907733 0.030106395 -0.03853523
0000c0 56 f2 58 3d 91 a4 fd 3d 25 e8 0a 3d c9 02 3c be
       0.052965485 0.12384904 0.033912797 -0.18360437
0000d0 12 c3 06 3c 28 1e d9 3b e7 8d 85 be ee fe be bc
       0.008225219 0.0066259094 -0.26084825 -0.02331492
0000e0 d0 e4 33 3d 3a 9e 6a 3d 76 8b 0d 3d 5c e1 5f bd
       0.043919384 0.057279803 0.03455683 -0.05465828
0000f0 7d 9e 57 bc 97 d9 14 3a 6c 63 4c 3d 57 7a 12 bd
       -0.013160345 0.00056781754 0.049899504 -0.035761204
000100 78 90 4f 3c f7 14 76 bd 4f 25 bb bd fe 7f 6d bc
       0.012668721 -0.060078587 -0.091379754 -0.014495848
000110 eb 32 ca 3e f5 86 78 bd fd 0c 1c be 68 96 15 3e
       0.39491972 -0.06067558 -0.1523933 0.14608157
000120 b6 ac 5d 3d d5 a9 54 3a 01 1f 10 3e 34 41 24 bd
       0.054119788 0.0008112465 0.14074327 -0.040101245
000130 da 82 f0 bc 58 72 15 3c d5 bc 44 bd 9a 9e e7 3c
       -0.02935927 0.0091215 -0.048031647 0.02827387
000140 a4 9b 75 3d b3 ae 32 bd b0 16 f7 3b fe 80 42 3d
       0.059962884 -0.043623637 0.0075405464 0.047486298
000150 d1 98 d9 be 74 ab ae 3d 78 5a 07 bc 9d 0a 9a bd
       -0.42499402 0.08528796 -0.0082613155 -0.075215556
000160 34 d4 7b 3d ea e3 58 3d 80 af 9a 3a 29 40 82 3e
       0.06148167 0.05295173 0.0011801571 0.25439575
000170 21 81 fc 3c 24 b3 5b bd 7c f1 fe bc d2 40 1a 3d
       0.030823292 -0.05363764 -0.031121008 0.037659474
000180 32 f4 65 bd 90 49 42 bc 56 e1 fb bc d0 2b 34 3c
       -0.056141086 -0.011858359 -0.030747097 0.010996774
000190 a5 4e 4d bd 7a 77 49 3d e2 ac 7b 3d 60 17 82 3c
       -0.05012383 0.049186207 0.06144417 0.015880287
0001a0 00 39 6a bd 60 b6 31 c0 44 af 72 3d f0 ed 7f 3d
       -0.057183266 -2.7767563 0.059249178 0.062482774
0001b0 cd cd 9b 3e b0 c7 78 bd 08 d7 79 3d 12 39 7b 3d
       0.3043045 -0.06073731 0.060996085 0.061333723
0001c0 46 29 74 c0 02 1c 82 3c f8 f4 2f bd bc 01 8a bc
       -3.8150191 0.015882496 -0.04295823 -0.01684653
0001d0 80 64 67 3d b0 04 f4 3d 10 5b e9 bc 4c db 08 3d
       0.05649233 0.119149566 -0.028485805 0.033412263
0001e0 64 16 65 bb f2 c9 68 3d a4 14 27 40 58 d3 a7 3c
       -0.0034955973 0.056833215 2.6106348 0.020486519
0001f0 70 bb 68 bc 60 b9 1b 3c a0 43 77 bb 2e a3 0a 3d
       -0.014204845 0.009504646 -0.0037729517 0.033847027
000200 69 aa 91 3e c2 23 ed be 96 54 d1 3b 6c 23 03 bd
       0.28450325 -0.46316344 0.0063882573 -0.032016203
000210 5d ad a2 3c 41 74 a4 be 9b 11 be 3d 96 7b 48 3d
       0.019858057 -0.32119945 0.09280702 0.048945986
000220 c6 d1 46 3d 59 cf 88 be a2 be 40 3d 36 61 a6 3e
       0.0485399 -0.26720694 0.0470568 0.3249604
000230 23 a1 ce 3c 86 85 2a bd ce 5c 65 3d f4 11 81 3c
       0.02522332 -0.041631244 0.05599671 0.015755631
000240 c8 76 9a bc e3 f8 e7 3c 8c b5 8f bf d7 77 31 bd
       -0.018855467 0.02831692 -1.1227279 -0.04332718
000250 83 4c 0f 3d 1a 9b 4d bd 18 29 f8 bc f0 a2 99 3b
       0.034985077 -0.050196745 -0.030293033 0.004688613
000260 3a 58 39 bd 35 cc 54 c0 e0 59 cc bc 19 11 23 3c
       -0.045250155 -3.3249638 -0.0249452 0.009952807
000270 80 87 71 3d d6 13 7f 3d 23 4a 65 bd 81 ca cf 3b
       0.058967113 0.062274776 -0.055978905 0.006341279
000280 1c d8 56 bd f0 8d 1e 3d 4b 1a bb bf 59 f8 56 be
       -0.05245219 0.03870958 -1.4617399 -0.20993175
000290 e7 60 ab bc e8 71 eb 3c 05 17 00 bd b8 7a 04 bd
       -0.02092023 0.028740838 -0.031271953 -0.032343596
0002a0 70 8d da be 06 75 c9 bc fc 8f 6c 3d ac f0 08 c0
       -0.42686033 -0.024591934 0.0577545 -2.1396894
0002b0 e7 73 f9 bc c5 4d c8 3c 6c 3e 55 bd e0 e2 7b 3d
       -0.030450774 0.024451146 -0.052061483 0.06149566
0002c0 4c 6f cd 3e 66 67 e5 3b fa 3e 5a 3d fc 28 e3 be
       0.40123975 0.0070008514 0.053282715 -0.44367206
0002d0 fc 97 d4 3c 32 fc 44 be c0 08 11 3b 0a 11 5f 3c
       0.025951378 -0.1923683 0.002213046 0.013614902
0002e0 46 e1 32 be a4 95 e1 bc e7 54 07 3d d2 3d 64 bd
       -0.17468747 -0.027537175 0.033039954 -0.05572302
0002f0 0d ff 7c 3c ec 81 9f 3c 13 0c e2 bb 74 50 e5 3c
       0.015441668 0.019471131 -0.006898412 0.027992465
000300 e0 c0 7d bb ed 87 98 bc 74 19 54 3d 2a 65 45 3e
       -0.0038719699 -0.018619502 0.051782086 0.19276872
000310 c4 22 b3 bc 1c 65 d5 be ae ff f1 be 37 b5 33 bd
       -0.021867163 -0.41678703 -0.4726538 -0.04387399
000320 d0 29 1f 3e b0 53 09 3c 08 d3 21 bc 0c 71 2c 3d
       0.15543294 0.008381769 -0.009876974 0.042099997
000330 f4 f3 fe 3c 5c 5d b7 3d fa 31 d7 bc 68 8c ba 3c
       0.031122185 0.08953354 -0.026268948 0.022772029
000340 20 0f 27 bd 8f 5b 55 bf 83 13 08 3d e0 71 d2 3b
       -0.04078591 -0.8334283 0.033221733 0.0064222664
000350 44 b5 1d 3d 95 5f 7b 3f 2f 39 44 bc f7 9e 55 b9
       0.038502946 0.9819272 -0.011976524 -0.00020372482
000360 58 5d d8 bc 1a e5 22 bd e0 c6 da bb 28 0b 8c 3c
       -0.026411697 -0.03976927 -0.00667654 0.017095163
000370 7c e1 45 be 84 b1 c7 bc 86 46 76 bd 48 b1 f7 3c
       -0.19324297 -0.024376638 -0.06012585 0.030235901
000380 10 5c 37 be de 97 86 3d 92 62 0e 39 b8 16 5e bd
       -0.17906213 0.06571935 0.00013578896 -0.054220885
000390 35 f5 29 3c 95 3b 33 be 85 0a 8b 3b c4 90 1f bd
       0.010373403 -0.17503197 0.0042431974 -0.03895642
0003a0 72 9c 57 bd a7 4b 1c 3d eb fd 7e bd ff 3f 19 3d
       -0.052639432 0.038158085 -0.062253874 0.037414547
0003b0 40 7a 2b bd 22 46 67 bd a5 fe 55 be 9c 5d 6d 3d
       -0.041864634 -0.05646337 -0.2089792 0.0579506
0003c0 ee 61 9c 3b 8b 48 0f 3d 5c 2a 3d bd c6 0b 0e 3e
       0.0047724163 0.03498129 -0.046182975 0.13871679
0003d0 02 8e 53 bd 1d 49 fc ba 64 cb 03 bd 16 f8 54 bd
       -0.0516491 -0.0019247864 -0.03217639 -0.051994406
0003e0 00 9e d1 3c 6a 72 ea 3d 86 66 4a bd b0 a8 7a 3c
       0.025588036 0.11447604 -0.04941418 0.015299007
0003f0 5d bf 8d be 9f d6 27 3e ec b7 17 bd 1c 94 6a bd
       -0.2768506 0.16390465 -0.037040636 -0.057270154

fc2.bias f4 [6]
000000 33 de 3c 3e 9b e2 2e be 18 b8 9b 3e 3e aa b4 3e
       0.18444137 -0.1707863 0.3041389 0.35286134
000010 bb 2d a4 3d 69 f4 b6 3d
       0.08016535 0.08933336
